eso_names_package/eso_names/model/model_2.pth (torch, 197768 bytes, 6 tensors)

weight f4 [128, 199]
00000000: 0df9 5bbc c97e bbbd 2810 11be fc04 aa3d
00000010: fba1 473c 6a30 ed3d a51b 36bc 5b75 2e3e
00000020: 6adf f93b 7615 513e e440 0dbe b768 c1bd
00000030: 857e 753d 2530 8c3a e986 f53d c32b 0dbe
00000040: 39e1 263e 0862 ab3d 5125 e2bd 5ded 91bd
00000050: 5bd0 983d 4527 b5bc 2f97 3fbe e3fa 443b
00000060: d56c 19bd 8a0c 8b3d cb59 43bd 92d2 933d
00000070: 976a 14be d23b aabd 7c5e 333e 642a 963b
00000080: 74af 123e fbea 493d 35e0 22bd 1b2d 413d
00000090: 7bc2 ea3d ac55 95bb 17db 7a3e cf37 d23c
000000a0: 8f80 95bc 7d68 0b3d 81b9 823e f837 21bd
000000b0: 8c39 34bd 0e44 4bbd 02dd 2f3e 8554 3ebe
000000c0: 0c4b 293d 3ec3 99bd 3b17 ecbd 5f39 1ebe
000000d0: adcf cb3d 0d96 483d 0e06 1bbe 59ad acbe
000000e0: f66a 3e3e 417e 893d 454e e63d f58c 743b
000000f0: cbb3 55bd f867 e0bd 3c9e 863d 4fec efbd
00000100: fb81 66bc 207c 493d 3d1b dabc 51a3 88bb
00000110: 42bb d43c 61d4 9f3d 1f07 03bd 01c7 53bc
00000120: 90bd a03c 606b 633d a813 84bc 699c 443c
00000130: c409 1a3d 22a1 b53d a978 22bc 7b76 173d
00000140: 4538 19bd c968 76ba 8de9 de3d 52d9 833d
00000150: 4566 903d 0830 14bb ee14 8cbc bc94 6fbd
00000160: bbca 34bd 61a9 793d 7ba1 6f3d 5728 c6bd
00000170: a519 fdbd b370 a6bd c65d a53d 9f86 87bd
00000180: eacf 58bd 9d86 e43c 674b 19bc 7081 9ebc
00000190: 8581 c33d 9fae 73bd 287e ef3c 1a29 97bc
000001a0: a7f2 9e3d 6a16 d9bd ff47 953d adbe 10bd
000001b0: f946 163b cea2 e7bc 0adf 5a3b a8e8 a03d
000001c0: d4fe 6f3b cc83 85bd 692f 17be 10b4 b23c
000001d0: 129e 2d3d 302f 97bd a4b0 26bd f683 98bd
000001e0: 0d34 8bbd 9643 8d3c a6d6 3d3b d8e4 cd39
000001f0: 7d42 103d 23d1 913b 619d 23bd d123 3f3d
00000200: 9472 7fbd 3aee 973d 66ee 40bd 00ef 813d
00000210: e0fa 433c cc8b b2bc 2f77 8ebc 378b c0bd
00000220: c488 3b3d a349 fbbc ff10 d6bd 0f28 6b3d
00000230: 61f2 e2bd 922c 973d 27bb 2f3c ad3b a43c
00000240: bb06 f03c 67ee d33d fd22 d5bc 65ae 9a3d
00000250: a83e 0cbd 4acb d9bc b91d 2f3d ced0 083d
00000260: 16bf fe3b 1041 52bd 8fed 343b e9fe 2e3d
00000270: 282e e83b 312c 11bd a8f9 9f3d 3158 843b
00000280: fb38 3f3d 89d3 8dbd f9bb e43d e31f aabb
00000290: 3dc1 39bd c0cc d03c ead0 02be a828 983d
000002a0: 3f14 963c c7ae 863d 6054 abbc 486b aebc
000002b0: e7c2 ae3c f9ae 1cbd 3648 7a3c 1ad9 613a
000002c0: 3732 ebbc 4a96 2e3d f2de ab3d 41de 9dbd
000002d0: 2e21 8c3d 9d93 47bd bff1 25bc 92eb 6bbc
000002e0: 9aee 4ebd 706c 783d 24c0 88bd ff20 1e3c
000002f0: eff2 06bc baf5 cd3d 2aa7 e63b 4147 d6bd
00000300: 40d2 0ebd f9c6 c2bc ac05 cfbc 33e0 c83b
00000310: ae9e 9abd e9a9 f2bd 52bc e2bc d880 dbbb
00000320: cfc0 d73d 6e9d 37bd 8bfb e0bd b3c2 5e3e
00000330: f7eb 5c3e 65a1 bebd 2da2 c43d 8086 afbe
00000340: a327 8e3e 17eb bebd bad0 68bd e5de a63d
00000350: 49e2 02bd a3c1 8ebd 0718 f4bd 5e2b af3d
00000360: 89cb 05be 7378 19bb a013 843d 694c 91bd
00000370: 0392 6dbd 6806 54bd 4e86 1c3c 337d 74be
00000380: bc78 6d3e 450b 1b3e c437 0bbd 1d4e 423d
00000390: 3489 b03d 7396 e0bd 66c9 69bd c620 363e
000003a0: a7b8 543c a723 ac3e 5512 7d3b 73e8 833d
000003b0: cb15 25bd 827e 2b3e e458 a7bd d482 84bc
000003c0: 5f47 5eba 5056 223d 6118 f3bd 18af ecbd
000003d0: 5706 e83d c24d dd3d be3c 2abe 9123 fb3d
000003e0: 2e2e da3d cc1a 47be ac3f e03d 3134 a53c
000003f0: 2d49 2bbd e861 323e 8f11 06bd 91ee 703d
-0.013426078 -0.09155042 -0.1416632 0.08301732 0.012184615 0.115815 -0.011114989 0.17036955
0.00762551 0.20418343 -0.13794285 -0.09443801 0.05993511 0.00106955 0.11988623 -0.13786225
0.16296853 0.08368307 -0.11042274 -0.071253516 0.07461616 -0.022113452 -0.18710016 0.0030056767
-0.037457306 0.06789501 -0.047693055 0.072178975 -0.14493786 -0.08312191 0.17516512 0.00458269
0.14324743 0.04929636 -0.0397646 0.047162157 0.114628755 -0.004557332 0.24497639 0.025661377
-0.018249778 0.034035195 0.25532153 -0.039360017 -0.044000193 -0.04962545 0.17174152 -0.18586929
0.041331336 -0.075079426 -0.11527868 -0.15451573 0.099517204 0.048971225 -0.15139028 -0.33726004
0.1859549 0.06713534 0.112453975 0.0037315462 -0.052173417 -0.109573305 0.065731496 -0.11714994
-0.014069076 0.04919064 -0.026624316 -0.0041698595 0.025968198 0.0780418 -0.031989213 -0.012925864
0.01962164 0.055522323 -0.016122654 0.012000182 0.03760697 0.08868624 -0.009916463 0.036978226
-0.03740718 -0.00093997695 0.1088439 0.06437935 0.07050756 -0.0022611637 -0.017099824 -0.058491454
-0.04413865 0.060952548 0.05850361 -0.09675663 -0.12358407 -0.081269644 0.080745265 -0.06617474
-0.052932657 0.02789622 -0.009356356 -0.01934883 0.09546188 -0.059492704 0.02923496 -0.018452216
0.07761126 -0.10599978 0.07289123 -0.035338093 0.0022930487 -0.028275874 0.0033397102 0.07856876
0.0036620395 -0.06519279 -0.1476418 0.021814376 0.042387076 -0.07382047 -0.0406958 -0.074470446
-0.06797037 0.017244142 0.0028967052 0.0003927115 0.03521966 0.00444998 -0.03994501 0.046665017
-0.06236513 0.07418485 -0.047102354 0.06344414 0.011961669 -0.021795176 -0.017390816 -0.09401553
0.045784727 -0.030674761 -0.104524605 0.05741125 -0.11081386 0.07381548 0.010725773 0.020047987
0.029300084 0.10348206 -0.02601766 0.07552794 -0.03423944 -0.026586194 0.042752955 0.033402257
0.007774244 -0.05133158 0.0027607416 0.04272357 0.0070855804 -0.035442535 0.0781129 0.0040388335
0.0466852 -0.06925113 0.111686654 -0.0051917895 -0.045350302 0.025488257 -0.12775007 0.074296296
0.018320201 0.06576305 -0.020914257 -0.02129139 0.021333171 -0.038252804 0.0152760055 0.00086154195
-0.028710468 0.042623796 0.08392133 -0.07708407 0.06842266 -0.04872476 -0.010128438 -0.014399426
-0.050520517 0.06065029 -0.06677273 0.009651422 -0.008236631 0.10056634 0.0070389705 -0.10462809
-0.03486848 -0.023776518 -0.02527126 0.0061302423 -0.07549797 -0.11848814 -0.027677689 -0.006698709
0.10534822 -0.04482787 -0.10985478 0.2175396 0.21574388 -0.09308127 0.09601245 -0.34282303
0.27764615 -0.093221836 -0.056839682 0.081479825 -0.031954084 -0.06970527 -0.11918645 0.085531935
-0.13065924 -0.002341774 0.06449056 -0.07094652 -0.058000576 -0.051763922 0.009553505 -0.23875885
0.23190588 0.15141018 -0.03398873 0.047437776 0.086199194 -0.10966196 -0.057076834 0.1778594
0.012983478 0.3362095 0.0038615663 0.064408205 -0.040303987 0.16747478 -0.081712514 -0.016175665
-0.0008479263 0.039633095 -0.11869884 -0.11556834 0.11329334 0.10805847 -0.16624734 0.12262643
0.10653339 -0.19443816 0.109496444 0.020166488 -0.041817833 0.17420161 -0.03273159 0.058821265

bias f4 [128]
00000000: 887e 22bd 67e4 f13c 07b6 13bc 20a2 0bbd
00000010: 235c 213c 6d3a a9bc cdd1 f4bc f8e7 cc3b
00000020: d09c 92bd e6e5 083c 35ff d5bd 7530 823b
00000030: b94b 58bc 7add 163e ddac afbc 60b2 773d
00000040: 4624 ebbb d275 52bd 734c e9bd c2bf 983d
00000050: 5bb3 4e3b 58ed 97bc 9807 23be 6660 063b
00000060: 4260 c2bd 7170 093c f543 b53c 6060 94bb
00000070: 66ba b3bc 7e03 d8bd 2905 1a3d 4c4c 5ebd
00000080: ff08 6e3c 34f0 c93d 396f e2bd c923 bfbc
00000090: 47f6 2dbc 63c4 19bd 452c e33d 6dbd 1b3e
000000a0: 4311 a33d 7c2d 08bd 2708 c8bc 49b5 643d
000000b0: 087a d53c 4d47 533d ed81 f1ba da42 0fbe
000000c0: 33b5 fbbc 60df 143d 1ef3 0cbe 783d 1a3d
000000d0: 11f7 733d 753a 8b3c 6fe1 90bb 7a15 0cbd
000000e0: b9d2 2abd 9105 373e 0a6f 10bb db0c 793d
000000f0: d472 3ebd 859b 253d 1977 efbd 7ba9 233d
00000100: 3bed 0fbd 703f ed3c 182c c0bc 8b1b dabd
00000110: 88a5 7dbc a43e e23b 7526 f53d 4f38 0d3d
00000120: dc5e 9ebd c7df bbbd 04b3 b33c cb14 ee3d
00000130: 67f2 17bd 315d 953b 738a 31bb 548b 523d
00000140: 37b2 a73d f65f 983d 839e 153d a802 ed3d
00000150: 2b60 d03d 8a1a aebd 54e3 c13d 66c8 f03d
00000160: a778 2b3c 02c3 f4bc 94d5 413d 7eef c43d
00000170: 8658 113d f646 4abc cd1e 603d 03e0 77bc
00000180: 9f6f d83d 93f5 69bd 7a65 4ebd 1b2a 713c
00000190: 7b2a 6d3d 216f a73d 8c75 aebc 9ef6 973d
000001a0: 2fd8 533d e25a 963b a7c6 ba3d 4b86 193c
000001b0: 36ad 64bc 8507 01bd 9858 d43d abf4 91bd
000001c0: a4f3 b93d 3757 803c 128b a33c 92fd de3d
000001d0: e707 4dbd 1036 c03c a4ec 003e d5ba 43bd
000001e0: ef53 b93d 7cac 6ebd 55f1 e4bd 6ab5 74bd
000001f0: b06b 4bb9 56fd 233d f032 0fbd 4401 e83d
-0.03967145 0.029527856 -0.009015567 -0.03409016 0.009848627 -0.020657742 -0.029885197 0.006253239
-0.07158816 0.008355593 -0.104490675 0.0039730617 -0.013201647 0.14732924 -0.021444732 0.060472846
-0.007175955 -0.051381893 -0.11391535 0.0745845 0.003154001 -0.018545792 -0.15920866 0.0020504235
-0.09491016 0.0083886245 0.022127131 -0.0045280904 -0.021939468 -0.10547541 0.037602577 -0.05427198
0.014528512 0.09860268 -0.1105637 -0.023332493 -0.010617799 -0.037540805 0.11092428 0.15208979
0.07962277 -0.033246502 -0.02441795 0.05583695 0.026059166 0.05158167 -0.0018425562 -0.13990346
-0.030726051 0.03634584 -0.13764617 0.037656277 0.059561793 0.016995648 -0.004421405 -0.03420017
-0.041704867 0.17873217 -0.002203884 0.060803276 -0.046496227 0.040431518 -0.11692638 0.03995655
-0.03513835 0.028960913 -0.023458526 -0.10649785 -0.01548136 0.00690444 0.11970226 0.03447753
-0.07732937 -0.091735415 0.021935947 0.1162506 -0.037096407 0.0045582284 -0.0027090579 0.051402405
0.08188289 0.07440178 0.03652812 0.11572772 0.101745926 -0.08501156 0.094671875 0.11756973
0.0104657775 -0.029878143 0.047322825 0.09615992 0.035484813 -0.01234602 0.054716874 -0.015129092
0.10568165 -0.057118963 -0.050389744 0.014719511 0.05790184 0.08175493 -0.021296285 0.07420085
0.05171984 0.004588471 0.09119921 0.009370397 -0.013957312 -0.03150131 0.103684604 -0.07126745
0.09079674 0.015666587 0.019963775 0.108882084 -0.050056364 0.023463279 0.12590271 -0.0477856
0.09049212 -0.058269963 -0.11178843 -0.059743322 -0.00019399705 0.04003652 -0.034960687 0.113283664

weight f4 [59, 199]
00000000: b93d 50bd 7303 6e3b b300 38bd 700e 0e3c
00000010: 47e9 17be e922 adbd 36fd 2fbc b005 0cbd
00000020: 3aee 063e b5bf 453e 0e88 15bd ec57 8a3d
00000030: 5461 b7bb 3ce1 71bb 2b1a a93d b019 aa3d
00000040: f82d 55be 3c12 893d 8aca a8bd 322d 0ebe
00000050: 89b4 823b 985b cc3c 5452 243e d44b 4c3d
00000060: b788 f23d 20a9 1fbe 2573 a7bd 5e1f 643d
00000070: 4062 aabd 8c6d 3cbd 8489 c3bd e720 07bc
00000080: badb c33d d8f0 1a3d d4b7 fabb 5d0c 7a3b
00000090: 9e79 9c3d d8ba 0bbe b17a 94bc ef22 1b3d
000000a0: 6ac1 963c c237 fc3d 1819 bcbd d0df 253e
000000b0: 2f89 863d 1368 b13d 8a9a 15be 78c4 a73c
000000c0: 1067 ac3d 58c6 cbbc 5108 f53b c139 36bd
000000d0: a99c 4dbd bff9 b6bc 4166 0c3d ac37 ca3c
000000e0: 2d3a 2a3d 3c7e 8ab7 fb01 14bd ea8c 47bd
000000f0: 2425 b13d 8a9d 2abc 7bbe ee3d 8335 4a3d
00000100: 14b2 9fbc bafd b53b f3d1 16bd 4db3 cb3c
00000110: a19d 493b bf2a 013e ecb8 8abd a081 733c
00000120: ec39 ad3d 7655 123c e690 373c 69a1 273d
00000130: 009c 3b3d 9889 4b3d 9381 213d 6e9b 943d
00000140: bf5d 91bd 0a67 07bc 28f2 ccbc 1111 24bd
00000150: 0adb 71bc 3676 3c3d 1903 55bd 0cda 603d
00000160: 4ad6 3f3d f57f 77bd 391b cf3c dddf 043d
00000170: 08ef f03c 7d11 e3bc e1e7 b33d d20a 3ebb
00000180: 415d 07be 773b 50bd 9b0e 13bd b05d 80bd
00000190: 3045 463c c492 793d f07d 863c bda1 7f3d
000001a0: 1ebd df3c 3969 c2bc 2211 213d 0891 323d
000001b0: deae 8cbd 1efa 8abd aa6d 85bd aff8 8fbc
000001c0: 855d 493d b3b8 973d 7b50 4c3c cf10 04bc
000001d0: 9818 e9bc 3147 a73b 530e dc3c 4373 38bd
000001e0: bd8e 57bd f8ec f4bc 399e c6bc 15bc 81bd
000001f0: 8a56 c13c dfa0 b13d c0b4 423b eb53 23bd
00000200: 63d6 25bd 1e89 d93c e8db 76bc f826 713c
00000210: 67e8 61bd ac79 0f3d a33b cfbd 12bd c23c
00000220: 66a6 6fbd 97ce 4b3d 42b5 c2bb 03c6 363d
00000230: 1673 463d 77fd fb3b faeb 40bd 38bd a4bd
00000240: ecfd ddbd 8904 93bc 22c8 08bd 9f77 a03c
00000250: fa09 a2bc 7e72 b2bd 5e73 8bbd bf51 dc3a
00000260: a01f 5cbd c488 593d 3f86 2c3d b0ab 3bbd
00000270: 713f cabc 96e5 bd3b adac e53c a6d9 eb3a
00000280: 5c78 693d 9aa1 603b 64c0 863d 9ba2 23bd
00000290: d9da ae3d d3c6 213d 8dd1 c2bd d592 6d3a
000002a0: 606d 92bd f8fe b23d b698 94bd d3a3 cdbb
000002b0: 1c64 25bd 2514 b7bc dc98 1c3e fb3d 06be
000002c0: 4a7b 25bd be54 f83c 3548 66bd 1a52 22bc
000002d0: d063 ba3c e491 d2bd cd33 3ebd 1b6d c73d
000002e0: 571d 073d 5a59 a5bd 7361 00be c254 a23c
000002f0: fc32 ca3b 08ed 74bc 4dfc 83bd 99e9 c33c
00000300: 70c0 efbc b6d8 80bc 972e 133c a428 343c
00000310: 9268 f5bd 0d52 c13c 9cfe 8b3b eaca 68bd
00000320: b612 21bd 6549 59be d7fd 1abe 625d 253c
00000330: 7e8a fdbb 4857 61bd 147b 14be d51e 823d
00000340: 401f b9bd e632 873e ac21 d03d 88c0 d53d
00000350: 5b0a 58bc 2d68 253e 127c 813c 2fee e6bd
00000360: ca4c 58bd 2de5 0e3d 4961 07be d11f ebbd
00000370: 74aa 09bd bf79 3d3d 7a54 0c3e 592a 98bd
00000380: 5653 c83d b35d 613e bbb1 a3bc f5ab f13c
00000390: 1236 a33c d86b 863d 2675 063e 8bfe 21be
000003a0: 1143 22be 5b5f d4bd 1221 cd3d fb9d 88be
000003b0: aeff 713d 9e8c 033e 139a 41be 4c9c a33d
000003c0: 9f40 0c3d 4faf 383d 9d96 1bbe c792 fe3d
000003d0: 0b0d e6bd 1fc7 f03c ce50 5e3d c3cc a8bd
000003e0: 93eb 4d3c b59c 2e3c 892b c4bd 79e7 c73d
000003f0: becc d03c 386a 3f3d 0d4c a4bc 6230 c33d
-0.050840113 0.0036317974 -0.04492254 0.008670434 -0.14835082 -0.08453924 -0.010741523 -0.03418511
0.13176814 0.19311412 -0.036506705 0.06755051 -0.005596319 -0.0036907932 0.08256944 0.08305681
-0.20818317 0.06692931 -0.08241756 -0.13884428 0.0039888066 0.024946019 0.1604703 0.049877003
0.118424825 -0.1559186 -0.08176259 0.055693977 -0.08319521 -0.04600291 -0.095477134 -0.008247591
0.09563394 0.037827343 -0.0076513086 0.0038154342 0.07640384 -0.13645494 -0.01812491 0.037875112
0.018402774 0.123153225 -0.09184474 0.16198659 0.065691344 0.08662429 -0.14609733 0.020479426
0.08418095 -0.024874851 0.007477798 -0.044488672 -0.05019823 -0.022335885 0.034277204 0.02468475
0.041559387 -1.6509664e-05 -0.0361347 -0.04871837 0.08649662 -0.010413537 0.11657425 0.04936744
-0.019494094 0.005553928 -0.036821317 0.02486577 0.003076412 0.12613963 -0.06773552 0.014862448
0.08458313 0.008931508 0.01120398 0.040925417 0.04580307 0.049691767 0.039430212 0.07256208
-0.07097959 -0.0082643125 -0.025017813 -0.04005534 -0.014761696 0.046011172 -0.052004907 0.054895446
0.04683522 -0.060424764 0.025281535 0.032440055 0.029410854 -0.0277183 0.08784462 -0.0028998149
-0.13219167 -0.05083796 -0.0359026 -0.062678695 0.0121014565 0.060930982 0.016417474 0.062410105
0.027311858 -0.023731815 0.03932298 0.043595344 -0.06869291 -0.06785987 -0.065150574 -0.017574636
0.049161453 0.074082755 0.01247036 -0.008060648 -0.02845411 0.005104922 0.0268623 -0.045031797
-0.05262636 -0.029898152 -0.024245368 -0.06334702 0.023600835 0.08673262 0.0029709786 -0.039874952
-0.04048766 0.02655464 -0.015067078 0.0147187635 -0.055153277 0.035028145 -0.10118797 0.023771796
-0.0585083 0.049757566 -0.005942018 0.044622432 0.0484496 0.0076901275 -0.047100045 -0.08043903
-0.108394474 -0.017946498 -0.033393987 0.01958829 -0.019780148 -0.08713244 -0.06809114 0.001680903
-0.053741097 0.053108945 0.042120215 -0.04581803 -0.024688454 0.005795191 0.02803644 0.0017993941
0.05699955 0.003427601 0.06579664 -0.039949995 0.08537836 0.039496254 -0.09512625 0.0009062712
-0.07149768 0.08740038 -0.0725569 -0.006275633 -0.040378675 -0.022348473 0.15292686 -0.13109581
-0.04040078 0.030313846 -0.056221206 -0.00990727 0.022752672 -0.10281733 -0.04643612 0.09737607
0.032986965 -0.08073683 -0.12537174 0.019815806 0.0061706286 -0.014949091 -0.06444607 0.023915099
-0.029266566 -0.015728336 0.008983276 0.010996018 -0.11982836 0.023598695 0.004272295 -0.05683414
-0.039324485 -0.21219404 -0.15135895 0.010093065 -0.007737457 -0.05501488 -0.14500076 0.06353537
-0.090391636 0.2640602 0.101626724 0.10437113 -0.013186063 0.16153021 0.015806232 -0.11275899
-0.052807607 0.034886528 -0.13220705 -0.11480678 -0.033609822 0.046258684 0.137041 -0.07429952
0.0978152 0.220084 -0.01998221 0.02950094 0.019923244 0.06563538 0.13130626 -0.15819757
-0.15845896 -0.1036975 0.10016073 -0.2668303 0.059081726 0.1284661 -0.18906431 0.07988796
0.034241315 0.045089062 -0.15194173 0.12430339 -0.112329565 0.029391823 0.05427628 -0.0824218
0.012568372 0.010657479 -0.09578616 0.09760947 0.025488254 0.046732157 -0.020055795 0.09530713

bias f4 [59]
00000000: d11b 303d 9890 b2bd 93a4 dc3c 8ff8 0a3f
00000010: 6d27 59be 7f01 fdbd 3361 f2bc 16b1 76bd
00000020: dbc3 0cbd 5c68 97be dbfe 833e 7789 3abe
00000030: c706 bfbe 6f79 dc3e 4863 5ebc dba6 67bb
00000040: db42 95bd c9f7 403e 9300 753e 917f b93e
00000050: 2e64 88be 037c 1b3f ffce 29be db04 adbd
00000060: 97b3 02be 6132 213f 0b8b 153e 2c36 53be
00000070: 5476 24be 66b1 47be bfd3 883e 0f72 71be
00000080: 1b7b 2bbe fd49 c1bd 486d b43e 538a 88be
00000090: b364 d5be 09a8 2fbe dc93 a33e a433 b43d
000000a0: 6a1c 133f 2837 053e bf71 8bbe e97f 8fbe
000000b0: 812a fc3d bc89 fdbe 4ea0 fa3d 182b 15be
000000c0: 4dc3 123e 6995 f63c 1710 6f3e b852 b63e
000000d0: d973 69bd fa09 c33c ddcc 6bbe 272b 083f
000000e0: 2d08 013e 496b dc3e 4539 7a3e
0.042995278 -0.08718985 0.026933944 0.5428552 -0.21206446 -0.12353801 -0.029587364 -0.060227476
-0.03436647 -0.29571807 0.25780377 -0.18216501 -0.37309858 0.43061396 -0.013573475 -0.0035347256
-0.07288142 0.18844523 0.23926 0.36230138 -0.2663893 0.607361 -0.16582869 -0.08448192
-0.1276382 0.629675 0.14603822 -0.20626134 -0.16060764 -0.19501266 0.2672405 -0.23578666
-0.1674618 -0.0943794 0.35239625 -0.26668033 -0.4167839 -0.17153944 0.31948745 0.08798912
0.5746523 0.13009322 -0.2723522 -0.28027275 0.123127945 -0.49519145 0.12237607 -0.1456722
0.14332314 0.030100541 0.23345982 0.35609984 -0.056995247 0.023808468 -0.23027368 0.53190845
0.12600775 0.43050602 0.24435909

weight f4 [59, 187]
00000000: 9b7a 38bd 04e4 09be bb24 dbbd eb2f 2ebd
00000010: 7e7f b23d 41a8 98bc b794 3ebd d156 32bc
00000020: bd9e 91bd d75f 583d ed5a 6cbe 37c0 c93d
00000030: 2e29 ae3d 5243 cfbc ebbb 8fbe 5d55 8fbd
00000040: 6db1 f03d bc50 e13d 6cb3 c9bc 152f b43d
00000050: d9af 953c df70 98bd 9d89 98bc f763 7fbd
00000060: 4948 cc3d 45b1 b43d 2479 7c3d cd09 36be
00000070: 63f4 113a 6c0a 313b 6c62 15be 0400 a8bd
00000080: 5a0b 983d b1e0 f63d 0ef6 4a3c 9856 e23c
00000090: f2cb 1bbe d1fb 693d e1cd d1bc 527d 0a3e
000000a0: a2fd aebd f9ca 8e3d dcaa a5be 54ab 423e
000000b0: 87ae 0cbd 485c 1e3d 2518 27be 720e b7bd
000000c0: 3de5 22be 00ab 7cbd 0052 33bd cba4 5bbe
000000d0: 0512 8fbd 8e78 19be 5513 05be 8b3e 64bd
000000e0: a264 f8bd e3a6 843d 1874 10bd f73b 7abd
000000f0: 6958 42bc 809b 8cbc da35 acbd c7ce 183b
00000100: e2b0 513d a46d 01be 29a5 4d3e 86cf aebe
00000110: d84d 33bd 971b 99bc dbbb 1b3e 9ead 5cbd
00000120: dcf1 c5bd 8f3d a5bc 1085 ef3d d134 943d
00000130: c7d1 90bd 9258 94bd d120 e93c a854 8e3e
00000140: b91e 493e 529c 1bbc 8f20 c6bd 96d5 a23e
00000150: 2631 883d 9722 433d 33b9 b73e eb99 c4bc
00000160: bba4 c13d 25f1 1e3b 1a04 73bc 563d d03c
00000170: 7a3c 16be 03ba ba3d 388c 62be bd9e 6b3d
00000180: 5a9f 033e ec2b 4a3c 6826 edbd 0fdf fc3c
00000190: 5842 7f3d 76c4 803c 04bd 133e 9c5f c83c
000001a0: d43a bc3e 26fc 6b3e 4543 bb3d a777 293e
000001b0: 40ae 96bd cd1a 0fbe 720a 8f3c 4b0f 493c
000001c0: 912c 843e ed21 66bd 8792 fabd b3cc 28be
000001d0: 7bc1 f7bd 4517 d5bd 396d 823d 92a4 bfbc
000001e0: 6d62 273b bec2 fa3d 22fe 4dbe 5ca7 bc3d
000001f0: e605 a7bc c97f 453e 73ce 83bd a042 a23e
00000200: 98d7 253e 5112 cabd a94e 213e 40ea 14be
00000210: 90e3 713d 7fb1 84bd 2b7a 9e3d d56a 983e
00000220: 0a76 15be 7069 0abe 5902 d23b 8568 1ebe
00000230: 74ca 35be e6bd 213e dc9c 283c 8cf3 b0bd
00000240: e54b 79bd 7336 b33d b60e 0d3e d4b8 183c
00000250: e011 5ebd 7dcb 503e e689 163d a61a 94bc
00000260: 56f8 783e 4f59 023d 50de 5c3e 159b 8ebc
00000270: 2002 e6bd 86cc b73e 1e90 df3c 1f6d 85be
00000280: 642c 243e cce6 fabb bc78 0b3d 619b b6bc
00000290: 1f32 4c3d 7a69 a8be a7e7 de3d 8e75 95bd
000002a0: ccf6 d23d 1db2 983d 9617 3f3e 82c7 163d
000002b0: af25 9a3d e4f1 e3bd acf2 1e3a cddb 80bd
000002c0: 163f 18be 04c9 ad3d 91e7 16bd 1c99 cfbd
000002d0: 9d0e 453c 82e6 e73d bcf5 453e 5efb f7bd
000002e0: 2556 a4bd 0e7e a13e 04b8 023d af7f 97bd
000002f0: 8be0 19be 2780 d8bc fc9f 10be 4fa6 20be
00000300: ecad 05be 45f3 bb3d e057 febc eb18 85bb
00000310: 57ee 39be 0dc5 143e 64ac 103e 154d b13d
00000320: c556 50bd 12d8 e2bd 7eb8 8bbe bcac 69bc
00000330: 994e 383e 767b 823e 0764 c7bc 9826 0cbe
00000340: 533f 51bd e580 ba3d 61c9 b5bd 7e30 d3bb
00000350: c561 f53d 9479 c0bc ad6e ee3d b7ba d6bd
00000360: 8e1e f23d 6f2a a3bc 535d 223e f6e8 3abe
00000370: 6f54 dfbd 18d7 ec3d f39e 083e f2d6 02bd
00000380: ac54 f8bd b4de 2ebe 9cc5 12be 4680 f23d
00000390: 77ff 90bd 3048 873d a6c6 c7be 53d7 acbe
000003a0: 97be 9abd 100b 8b3c 4064 833e e829 913e
000003b0: 0697 90be 622a c63d e7a3 a13d 17e5 473d
000003c0: a12d 2b3d 59da 683e 9161 4c3c 2ed6 21bd
000003d0: 3b02 19bc a649 183e 81c7 84bd 738a 74bd
000003e0: 1988 00be c45a eb3d db64 963d 2319 aabd
000003f0: c2fd b13c fee5 27be 8021 ec3d a837 143d
-0.0450388 -0.13465887 -0.10700365 -0.042526167 0.087157235 -0.018634917 -0.046528544 -0.010884956
-0.07110355 0.052825775 -0.2308156 0.09851115 0.08503948 -0.025300656 -0.28073058 -0.06998704
0.11752591 0.11001727 -0.024621688 0.08798043 0.018272327 -0.074434035 -0.018620307 -0.062351193
0.09974725 0.08822874 0.061638966 -0.17777176 0.00055677275 0.0027014269 -0.14588326 -0.08203128
0.0742404 0.12054575 0.012387766 0.027629182 -0.15214518 0.057124916 -0.025610866 0.13524368
-0.0854447 0.06972308 -0.32356918 0.19010669 -0.03434613 0.038662225 -0.16317804 -0.08938302
-0.1590776 -0.061686516 -0.043779373 -0.21449582 -0.06985859 -0.14987394 -0.12995656 -0.055723708
-0.12128569 0.064771436 -0.035266966 -0.061092343 -0.011861899 -0.017163992 -0.08408709 0.0023316608
0.05119408 -0.12639481 0.20082535 -0.34142703 -0.04377541 -0.018689914 0.1520838 -0.05387651
-0.09665272 -0.020170955 0.116953015 0.072366364 -0.07071262 -0.07243456 0.02845803 0.27798963
0.19640626 -0.009497719 -0.09674179 0.31803578 0.06649999 0.04764041 0.35883483 -0.023999175
0.09455248 0.002425262 -0.014832521 0.025419872 -0.14671507 0.0911751 -0.22123802 0.05752443
0.12853757 0.012339573 -0.11579591 0.030868081 0.06231913 0.01571868 0.14427572 0.024459653
0.36763632 0.23045406 0.0914369 0.1654955 -0.07357454 -0.13975067 0.017461035 0.0122717125
0.2581525 -0.056184698 -0.12234979 -0.16484337 -0.1209745 -0.10404829 0.06368489 -0.023393903
0.0025540844 0.122441754 -0.20116475 0.09211609 -0.020388555 0.19287027 -0.064358614 0.31691456
0.16195524 -0.09866775 0.15752663 -0.14542484 0.05905491 -0.06479167 0.077381454 0.29769006
-0.1459581 -0.13516784 0.0064089713 -0.15469559 -0.17753011 0.15795097 0.010291304 -0.08640203
-0.060863394 0.0875062 0.13775143 0.00932141 -0.054216266 0.20390125 0.036752604 -0.018079113
0.24313483 0.031823453 0.2156918 -0.017407933 -0.11230874 0.35898226 0.0272904 -0.26059815
0.16032559 -0.0076569077 0.03405069 -0.022290887 0.049852487 -0.32892972 0.10884028 -0.072978124
0.10300979 0.074558474 0.18661341 0.03681136 0.07526719 -0.11130121 0.00060633826 -0.06291924
-0.14867815 0.08485606 -0.036841933 -0.10136625 0.01202741 0.11323263 0.19332021 -0.12108491
-0.08024243 0.31541485 0.031913772 -0.073974006 -0.15027063 -0.026428295 -0.14123529 -0.15688442
-0.13054627 0.09177259 -0.031047761 -0.0040618083 -0.18157326 0.14528294 0.14128262 0.0865728
-0.050864 -0.110763684 -0.27289194 -0.0142623745 0.17998733 0.25484818 -0.024339689 -0.13686597
-0.05108578 0.09106616 -0.088763006 -0.0064449897 0.11981539 -0.023495473 0.116422035 -0.10484832
0.11822234 -0.019917695 0.15855913 -0.1825293 -0.10904776 0.115644634 0.13341884 -0.03194327
-0.12125525 -0.17077142 -0.14333194 0.118408725 -0.07079976 0.066055655 -0.39018744 -0.3375803
-0.075558834 0.016973048 0.25662422 0.28352284 -0.28240222 0.09676053 0.0789259 0.04880246
0.041791562 0.22739543 0.0124744335 -0.0395109 -0.009338911 0.14871845 -0.06483365 -0.059702348
-0.12551917 0.114919215 0.073434554 -0.08305576 0.021727446 -0.16396329 0.11529827 0.03618589

bias f4 [59]
00000000: c70a cb3e 08cf 0ebe 636c 2cbe aba4 213e
00000010: 6a22 253e 8c03 a7be 211d 3fbe 278f 603d
00000020: 397c 0b3e 7a08 9ebd beb6 ddbc 6337 383e
00000030: 0719 8ebd c198 c23d 9752 0b3e d252 80be
00000040: 5a1b b1be 191a 3e3e 7d4b 683d d562 0ebd
00000050: 982e 4e3e 3576 38be b14e 85be 4389 a4be
00000060: 1b1f 20bd ed28 aebd f97c eabe c703 a2be
00000070: 00a5 c7be 3912 97be aaac c2be 5ca8 d9be
00000080: 278c aebe ed61 8bbe df62 e3be eaaa 9ebe
00000090: 2273 bbbe f164 babe 6840 c1be 03f2 93be
000000a0: 35aa d5be 59b0 bbbe da2d cdbe 0b45 9fbe
000000b0: 6286 8bbe 1c68 b9be b27b eabe 2d2c d8be
000000c0: 5963 cdbe d866 c3be 2591 f5be 521c b0be
000000d0: fe43 bbbe cc15 d6be 94e8 c0be 815a f1be
000000e0: 9a91 2bbe 89e4 a3be 449d 55be
0.3965666 -0.13946164 -0.16838221 0.15785472 0.16126409 -0.32619894 -0.18663456 0.05482402
0.13621606 -0.077164605 -0.027064677 0.17989878 -0.06938367 0.09501792 0.13605724 -0.25063187
-0.3459118 0.18564643 0.056712616 -0.034762222 0.20134962 -0.18013842 -0.260366 -0.32135972
-0.039092164 -0.085039 -0.45798472 -0.31643507 -0.38993073 -0.2950609 -0.38022357 -0.4251126
-0.34091303 -0.2722315 -0.4441137 -0.30989772 -0.36611277 -0.36405137 -0.3774445 -0.28895578
-0.4173142 -0.3665798 -0.40074044 -0.31107363 -0.27250963 -0.36212242 -0.45797497 -0.42221203
-0.4011486 -0.381644 -0.479623 -0.34396607 -0.3657531 -0.41813505 -0.37677443 -0.47139362
-0.16754761 -0.32010296 -0.20860773
