name_generator/model/model_1.pth (torch, 196296 bytes, 6 tensors)

weight f4 [128, 197]
00000000: f63e 67bc cd52 583e 580e 95bd cdae 513c
00000010: 7e44 3bbd 94e0 7cbd 54e8 6c3d 94a6 713d
00000020: d0a5 4c3e 2616 513c 80c3 aabc 3efa 513d
00000030: fd72 713d cbfb 153e 530e d5bd 60cd 1fbd
00000040: 4d0b a73d ec46 34bd cf95 1ebd 85d9 34bd
00000050: cbde 85bc d52f bc3d ac79 48bc 65d5 1f3b
00000060: 718d 1cbe 298a 92bd 31f2 823d 8136 79bd
00000070: 695a a0bd 468d a63c 9c68 0bbd 0f09 ca3a
00000080: 2b29 23bc 0843 1d3d aa45 3fbe c751 e33c
00000090: 481b 19bc ac65 7f3d 531e 9cbc d979 ae3c
000000a0: 2da4 9dbd a54d e2bc 5300 a83d 89cc b6ba
000000b0: 130f 50bd f468 12bd e22f 1c3d 266d 6abb
000000c0: 7104 8f3c d708 833d 8f45 633c 1336 103d
000000d0: a069 873d 12e3 5a3d d4b6 92bd 261a a83d
000000e0: a9c6 463c 0f10 a23c 4758 1e3d ba00 323d
000000f0: 8aa6 72bd 64f0 5bbd 77a5 4c3d a5d6 04bb
00000100: cf57 643d 3273 263d 7f45 613d 1df2 a4bd
00000110: 112d 3f3d b5c9 22bd 5118 11bd 05cf 873d
00000120: 0ae0 9e3b 37c2 643b 1392 223d 494a ddbc
00000130: 5c77 55bc c326 4ebc 591b 35bd 01f6 0a3c
00000140: 129f 1dbc 0214 0bbd 0b21 febb cfbb 17bd
00000150: b7d0 32bd 69bc 933a 825d 56bd 5de3 673c
00000160: 6542 55bd f72b 943b 9b41 46bc 052c 35bd
00000170: 57cf ce3c c11b 933a 683a a939 7709 d53c
00000180: a4fb cbbc 22db 7fbd f104 bb3c b0b3 903c
00000190: 4c2b 1cbd 228a e6bc 27a2 fb3b b21c 5d3d
000001a0: 48c5 0dbc 428e 53bd 9f57 8bbc bc98 a33c
000001b0: c236 1fbc 56c7 d53b 2c05 50bc 704a 833d
000001c0: 7c57 b6bb a81c 843c 875b 08bd f5ef 383d
000001d0: 5f65 11bd 29e4 a33c 49bd a5bb 947c 1cbd
000001e0: 624a 393d 6ac3 af3b 27f4 8abd c59a 13bd
000001f0: d0b5 0d3d 28c8 5a3d 9e80 9f3c 8cde e03c
00000200: 3275 39bd afc2 0a3d a75a 0dbc 4784 513d
00000210: a727 b83b c4a5 393d c629 9a3d 9635 58bd
00000220: 65e4 8cbd 7f11 fd3c bb61 86bd 344a 7c3d
00000230: b0cb aabc dcb7 a5bc 8268 7bbc 9bc3 d1bd
00000240: e263 af3d 4cbd eabc fc79 8ebd eac2 623d
00000250: d938 2a3d 223d 43bc e1ed 74bc 7e33 b7bc
00000260: d4a7 6abd 4e5f 15bd 1877 903b c6a8 61bd
00000270: 5a10 38bd 960b 92bc 4a37 4ebb 7b91 063d
00000280: 2fae 9dbd 7045 eabc 8dae e13a 7223 813d
00000290: f293 933d e937 053c 2322 55bd 295a ff3c
000002a0: dc41 5fbc 56d9 8e3d 2eea 5bbc 23e7 b03d
000002b0: af38 073d 82ce e13c 017f ba3d 3612 19bc
000002c0: 2cad ebbc 6860 fd3a 70ec 0abd 8b3b 98bc
000002d0: 658f 30bd 2597 303d 5ae5 de3a 81f2 343d
000002e0: d8c4 6a3d ccff c1bd e796 03bd 5698 2d3d
000002f0: eb3f b33c 5e98 38bb 2328 49bd 09e5 98bd
00000300: 91a5 553d 8d30 393c 9c14 4fbd 06ee a63c
00000310: 7ece 2cbc 5cba a9bd 2f24 a0bd 8a0c 1ebe
00000320: bb34 b63d 88aa cc3d 71f8 863d 89da ff3b
00000330: 33e1 f63d 278b 86bd 317b 5a3d 5daf 503e
00000340: f5e9 b6bd 266c 02be 13f7 ddbd 1d66 383e
00000350: 0dd4 82bd 2ee8 b8bc 1765 79bd 1fa7 e7b7
00000360: 2c16 fc3b 4eae 73bd 0d48 c63d 1a3c acbd
00000370: e628 8ebd 97ef 1f3e 038a d03c 73a8 863c
00000380: e87c a8bd 0e06 e73d 1100 14be 66d8 a23e
00000390: c6f6 0dbe 5502 543c cb58 aebd 76a1 94bc
000003a0: 784c 57bd b84b a13d ffc0 0a3d 49db a3bd
000003b0: 2e2c bfbd 1804 a03d 1e7e a83c 4838 ad3c
000003c0: 2bac bbbd a13c 023e c78d c2bd ab33 aebd
000003d0: 72b1 92bc 32d1 e3bc 89d4 b6ba f811 0e3e
000003e0: 7cb6 063d 74ed b0bc 7a92 35bd bb35 1abd
000003f0: d84d 45bd f2f8 ea3d fe5e f1bd 13c5 44ba
-0.014114132 0.21125336 -0.072781265 0.012798023 -0.045719616 -0.061737612 0.057838753 0.058996752
0.19985127 0.012761628 -0.020845175 0.05126404 0.058947552 0.14646833 -0.10403123 -0.03901422
0.08156452 -0.04401295 -0.038717087 -0.044152755 -0.016341588 0.09188811 -0.01223604 0.0024388668
-0.1528833 -0.07155258 0.063938506 -0.060842995 -0.07829744 0.020331036 -0.03403531 0.0015414077
-0.009958546 0.038394004 -0.18678918 0.027748955 -0.009344883 0.06235282 -0.019057428 0.021298336
-0.0769733 -0.027624914 0.08203187 -0.0013946454 -0.050795626 -0.035744622 0.038131602 -0.0035770624
0.017458173 0.063981704 0.0138715645 0.03520782 0.06611943 0.053439207 -0.07163778 0.082081124
0.012132325 0.019783048 0.038658407 0.043457724 -0.059240855 -0.05369605 0.049962487 -0.002026954
0.055747803 0.040637203 0.054997917 -0.08053992 0.046673838 -0.039743144 -0.03542358 0.06631283
0.004848485 0.00349058 0.03969009 -0.027012961 -0.013028946 -0.012582484 -0.044215534 0.008481503
-0.009620445 -0.033954628 -0.007755404 -0.037044343 -0.043656077 0.001127136 -0.05233527 0.014153329
-0.052065272 0.0045218426 -0.0121006025 -0.044231433 0.025245352 0.0011223481 0.00032277708 0.02600549
-0.024900265 -0.06246484 0.022829505 0.017663807 -0.03812723 -0.028142039 0.007679242 0.053982444
-0.008652993 -0.05164934 -0.017009554 0.01997029 -0.009717645 0.006524007 -0.012696546 0.06410682
-0.005564628 0.016126946 -0.033290412 0.045150716 -0.035497066 0.020006256 -0.005057965 -0.038204744
0.045236953 0.0053638713 -0.067848496 -0.03603627 0.034597218 0.05341354 0.01947051 0.027449869
-0.04527778 0.03387707 -0.00862757 0.05115154 0.0056199613 0.045324102 0.07527499 -0.05278548
-0.068795 0.030892132 -0.06561609 0.061594203 -0.020849079 -0.020229273 -0.015344741 -0.10242387
0.08563973 -0.028654717 -0.069568604 0.055361666 0.04155812 -0.011916431 -0.014949293 -0.02236342
-0.05728896 -0.036467843 0.0044087283 -0.055092596 -0.04493747 -0.01782779 -0.003146606 0.032853585
-0.076992385 -0.028597564 0.0017218158 0.06305589 0.07205953 0.008131006 -0.05203451 0.031170921
-0.013626542 0.06975047 -0.013422532 0.08637836 0.033013042 0.02756429 0.09106255 -0.009342721
-0.028769098 0.00193311 -0.03391689 -0.01858308 -0.0431055 0.043112893 0.0017005608 0.044176582
0.05731663 -0.094726175 -0.032126334 0.042381607 0.021881064 -0.002816699 -0.049110543 -0.0746556
0.05215985 0.011303079 -0.050556764 0.02037717 -0.010547278 -0.08287498 -0.078194015 -0.15434471
0.08896776 0.09993464 0.06590355 0.007808034 0.12054672 -0.0656951 0.05334014 0.20379396
-0.089313425 -0.12736568 -0.10838141 0.18007703 -0.06388102 -0.02257165 -0.060887422 -2.7615168e-05
0.007693073 -0.0594924 0.09681711 -0.08409901 -0.069413945 0.1561874 0.025456434 0.016437745
-0.08226949 0.11280452 -0.1445315 0.31805724 -0.13863668 0.012940009 -0.0851303 -0.018143397
-0.05256316 0.0787577 0.03387546 -0.0800081 -0.093345985 0.07813281 0.02056795 0.021145001
-0.09163698 0.1271844 -0.09499698 -0.08505949 -0.017906878 -0.027809713 -0.0013948838 0.13874042
0.032888874 -0.021597601 -0.044329144 -0.037648898 -0.04816994 0.11473264 -0.117856964 -0.0007506173

bias f4 [128]
00000000: 8c29 9e3e 297b 57be ec74 8fbe 585e 3bbd
00000010: c5e2 11bd aabb cdbd a950 bebd 80ef 56be
00000020: 9268 b63d 052b 5b3d 593b 9b3d 1232 1a3e
00000030: c098 163e d7a9 04bd e145 c13e 5e12 cb3e
00000040: f037 1a3d 44af 9a3e 89fc 563c 191f 8cbd
00000050: 81bd 183e 5267 ae3d 08c2 8f3e 4ecc d2bd
00000060: 735a 08bc 94f5 0cbe 72c9 603e 277a 95be
00000070: bcb3 14be de77 133f 5995 af3e 28b4 b23d
00000080: 8a94 89bc 12ab ab3e 2259 ae3e dcc7 b43e
00000090: 4bd0 ff3c 9081 e73e 238e c33d 30ee 67be
000000a0: 22b4 e23d 7dc8 10bc 4364 9abe 8734 ee39
000000b0: 3c2f 003e 4be5 10be 3f79 d63d afab a13e
000000c0: 19ac 883e 7d08 2d3e 223f e1be 5bf3 113d
000000d0: 91b4 693d ca41 9ebe e9a7 94be fc23 4f3e
000000e0: 8e58 a33e 087b 1cbd 811a 04be ea68 4c3e
000000f0: 5ae9 6a3e 87cf 5b3e 3699 a43d 30bd f63c
00000100: 8cfa 95be 8dc8 aabc 0bb1 58be 1d86 4a3e
00000110: 5351 3d3e 9a93 fe3d 364e 7f3e 29de b63e
00000120: 2822 20be 94b8 833d d605 803e 3bfb 353c
00000130: 99ec afbd 64dc 08be 96ae 5a3e dfdf 703e
00000140: 8a63 f33e f480 a23d 5a99 103e e254 4cbd
00000150: 2399 4cbd 5eb7 50be 8c25 74be 3591 e5bc
00000160: 457b 2cbe 949b 5abe 905d aabe b630 dc3d
00000170: dcc8 b93d 3de9 513e b9a2 3a3e a108 a3be
00000180: b815 01bb c739 1c3e 6ee0 d23d 1bc8 5d3c
00000190: 3673 393e 77ac 6c3e 12e5 4ebd ce67 2f3e
000001a0: ec73 6ebd 5aad 453d d6b0 ecbd bba0 8bbd
000001b0: ecfc b83d 2eea f83e b177 0c3d 5dd2 873b
000001c0: 8fcc 8e3d 8eab 88be 8528 22be ae04 a73e
000001d0: c89c 72be 1bbf 873e 08a3 8a3e 0f61 a73d
000001e0: ba6d 86be d2ac 0abb 3178 31be f6b2 513e
000001f0: 462f 96bd 7069 44bd 33ec 21bc d0a1 393e
0.30891073 -0.21043076 -0.28018892 -0.04574427 -0.035616655 -0.1004556 -0.092927285 -0.209898
0.08906664 0.053507823 0.07579679 0.15058163 0.14706707 -0.032388534 0.37748626 0.3966245
0.037651002 0.30211842 0.0131217325 -0.06841869 0.1491604 0.085158005 0.28077722 -0.10292874
-0.008322346 -0.13765556 0.21951845 -0.29194757 -0.14521688 0.5760478 0.3429363 0.08725768
-0.016794462 0.33528954 0.34052378 0.3530873 0.031227252 0.45216036 0.09548595 -0.22649455
0.11069514 -0.008836863 -0.3015462 0.00045434033 0.12518018 -0.14149968 0.104723446 0.31576297
0.266938 0.1689777 -0.4399348 0.035632472 0.057056967 -0.30909568 -0.29034355 0.2022857
0.319035 -0.03820327 -0.12900735 0.19961897 0.22940579 0.21465884 0.08037035 0.030119509
-0.29292715 -0.020847583 -0.21161287 0.19777723 0.18488054 0.124304965 0.24932179 0.3571637
-0.1563803 0.0643169 0.25004452 0.011107261 -0.08590049 -0.13365322 0.21355662 0.235229
0.4753688 0.07934752 0.14120999 -0.049885638 -0.04995073 -0.20382449 -0.23842448 -0.028023342
-0.16843899 -0.21348411 -0.33274508 0.107514784 0.09071514 0.2049913 0.18226136 -0.3184252
-0.0019696783 0.15256415 0.10296713 0.013536478 0.18110356 0.23112665 -0.050511427 0.17129442
-0.05821602 0.048261024 -0.11557166 -0.06817766 0.09032616 0.48616165 0.034293834 0.0041449503
0.0697261 -0.26693386 -0.1583577 0.32620758 -0.2369262 0.2651299 0.27077508 0.08172809
-0.2625559 -0.0021160138 -0.17331006 0.20478424 -0.073332354 -0.047952116 -0.009882974 0.18128133

weight f4 [59, 197]
00000000: 8d26 813d 7199 f1bd f1a1 a6bc 2680 c53a
00000010: 1859 3dbc 235c 56bd 7c08 583c 2843 b3ba
00000020: 40ea 36bc f1fd aabc 3edd e03d bd83 013c
00000030: f0c5 2dba 5d72 7b3d cfcd 033c 5e02 d5bb
00000040: b3ea 733d 9656 a93d eab3 0bbd 36d0 3fbd
00000050: 8156 a2bd 4ad1 eb3d 1ae5 6cbc dcfb cb3d
00000060: 6725 ba3d ee08 f93c fb65 85bd 83a6 073d
00000070: fe31 0fbc 9646 debd ba94 053c 1328 53bb
00000080: 3606 81bd 0a47 263d 0784 e33c 1ee1 803b
00000090: daee 093e 7e72 8fbc 8603 15bd 395f 2bbd
000000a0: fbab ff3d bf4f acbc 15da 633d 8503 98bd
000000b0: 096d 583d caa9 82bc 7ebf b0bd aa54 a53c
000000c0: 74cb 09bd 23c4 91bd 92ca cb3d 8472 9abd
000000d0: 2788 433d a93b da3c 7d2d fb3c fffb aebd
000000e0: 2767 e73c a2aa 4ebc 6366 41bd 7129 74bd
000000f0: 24dd 88bd c0ac 813c 357c f33c f603 3bbd
00000100: bd6a 063d fc2c 5abd 0b17 333d e1ed d7bd
00000110: 6807 143d f223 73bd 4397 c33b c092 68bd
00000120: 39a5 b13c e932 71bd e403 c4bc b37d 29bd
00000130: b2dd 9bbd 1ead 7ebc 64fd 253c 5179 63bd
00000140: 4655 103d ff07 bb3d f9a6 343d 6c37 983d
00000150: e637 debc 898e 80bc 2ca6 043d fd2a debc
00000160: 5f81 47bd f972 9f3d 86db 0cbc b336 733d
00000170: a572 25bd 45fb 033c f09f 8cbd 7d56 8abd
00000180: eb74 3c3d fd9a 9fbc 379b a93c 3f91 033c
00000190: 1a6a b03c 7d5e 50bd afbb a13c c474 6c3d
000001a0: 60a3 c43d 93ab 68bd 6785 493d 9b5c 1abd
000001b0: faa3 353d 17ba 4e3c d0a4 cbbb 60ae 053d
000001c0: 39ca 6f3d 4747 dabc 5103 563d 81de 8bbb
000001d0: 3c3e af3d a754 c13d 7278 3abc adb6 c0bd
000001e0: 876e 963d 5079 72bc 7784 123c 0c46 18bd
000001f0: 09bd 95bc 61aa 7c3d e56f 693c 62ca 83bd
00000200: 32b4 393a 0034 ffbb 8ed9 853d 3bac 51bc
00000210: f57d d53c 7b78 6abd e0af 8f3d 41c5 ae3c
00000220: 274a f5bc 741e 223d f5b3 2abd 1a1b 5c3d
00000230: 9e3e 14bd cd15 52bd 74dc 0a3d 3e31 bcbb
00000240: d850 93bd f73b dcbc 961a f7bc 4367 473d
00000250: 2e0d c03d 0c29 1b3d 9ce8 f73c 7e99 0bbd
00000260: c5a4 f13b 6854 9fbd f6da 3dbd 7d0a 3e3d
00000270: ae9b 183d ebec b1bc c8b1 66bd de8d 38bc
00000280: 7370 5bbd 0274 4d3b b1a4 293d 7cac cbbc
00000290: 7eed 13bd 42bf 8ebd 2a95 86bb 22be 58bc
000002a0: 8d42 8c3d 8b0e 503d 8b5d 873d 77ce 92bc
000002b0: 2077 3cbd dfb8 9bbd f5ba d9bc 8ffc efbc
000002c0: d17e 603d 08c5 0b3c d3cb b53d 4ff2 893d
000002d0: 622d ff3a deb8 acbc ab3b 73bd 8363 90bd
000002e0: 293e 1fbd 6892 4e3c a5b5 0e3d 136a e4bc
000002f0: c11b 383d 5dad 2bbd e208 2c3d 385a 46bd
00000300: dd6f c6bb 1462 35bc ec69 1a3c 7c57 183d
00000310: 6696 6e3c 2b65 e73c 7ca0 c83d 8833 adbd
00000320: 9dd7 81bd 2deb ad3d c588 7c3d e5a0 b43b
00000330: 30af 213d fc75 8c3d 18ee c0bd ae6c 063d
00000340: 9fc0 643d 03a3 1bbd 8bee 823d a28c c73b
00000350: de71 19bc b118 a43d 7529 5f3d d456 0c3e
00000360: 8080 243d 29db 55bd e5f5 4cbe e103 093c
00000370: 9069 fcbc 0d0a 4c3d 35e3 c4bd 2a55 38bd
00000380: e007 9abc ba12 2ebe 2a43 d5bd 901a 393d
00000390: be3b e2bc 0c56 5cbd d6d2 8cbd b240 263e
000003a0: 0917 573c 4fa9 163d 06f9 b73d 94ab cbbd
000003b0: 137c bf3d f5ce 38bd 61b7 903c 1dbb 563d
000003c0: 567a 573d 7af5 c13d 7f7b 973d 3997 ce3b
000003d0: 31c9 513d c5e0 92bd 0ca8 923c 8db7 7c3d
000003e0: 88b3 93bd 4b4b 8c3d a98e 0c3d 15ee 35bd
000003f0: accd d3bd 09dd ac3d 6c6b 21bd 42b7 72bc
0.06306181 -0.11796845 -0.020340892 0.0015068098 -0.011556886 -0.052333962 0.013185617 -0.001367663
-0.011164248 -0.020873042 0.109796986 0.007904944 -0.0006628921 0.061388362 0.008044674 -0.0065005263
0.05955 0.08268468 -0.034107126 -0.046829425 -0.079266556 0.11514528 -0.014458919 0.09960148
0.09089165 0.030399766 -0.06513592 0.033117782 -0.008739946 -0.10853307 0.008153135 -0.003221993
-0.06300013 0.040595092 0.027772916 0.003933086 0.13470021 -0.017510649 -0.036380313 -0.04183886
0.124839745 -0.02103412 0.0556279 -0.07422546 0.05283836 -0.015950102 -0.08630274 0.020181973
-0.033641294 -0.07117488 0.099507466 -0.07541373 0.047737267 0.026639776 0.030661339 -0.08544158
0.028247429 -0.012613924 -0.047216784 -0.059609834 -0.06682804 0.015829444 0.029722312 -0.045658074
0.032816637 -0.053265557 0.043723147 -0.10543419 0.036139876 -0.059360452 0.0059689595 -0.056780577
0.02168523 -0.058886442 -0.023927636 -0.04137964 -0.076106444 -0.015544204 0.010131214 -0.05553562
0.035237573 0.091323845 0.04410455 0.07432446 -0.027126264 -0.015692966 0.032385036 -0.027120108
-0.048707362 0.07785601 -0.00859726 0.059378337 -0.040392537 0.008055513 -0.06866443 -0.067547776
0.04600994 -0.019483084 0.020703895 0.008030235 0.021534968 -0.05087136 0.019742815 0.057728544
0.09601474 -0.05680425 0.049199488 -0.03768597 0.044345833 0.012617609 -0.0062147155 0.032637
0.058542464 -0.026645316 0.052249257 -0.004268468 0.08556792 0.09439974 -0.011381255 -0.09409843
0.073453 -0.014799431 0.008942715 -0.037176177 -0.018278616 0.061685923 0.014247869 -0.06435086
0.0007084041 -0.0077881813 0.06535636 -0.012797411 0.026061038 -0.057243805 0.07015967 0.021334292
-0.029942585 0.039579824 -0.041675527 0.053736784 -0.03619253 -0.051290322 0.033901647 -0.005743175
-0.07193154 -0.026884062 -0.030164044 0.048682462 0.09377514 0.037880942 0.030262284 -0.03408193
0.0073743784 -0.07779771 -0.046351396 0.04639672 0.037257843 -0.021719417 -0.05632189 -0.0112642925
-0.053574037 0.0031349664 0.041416828 -0.02486252 -0.036115162 -0.06970073 -0.004107137 -0.013228925
0.06848631 0.05079512 0.06609639 -0.017920716 -0.046012044 -0.07603621 -0.026578406 -0.029295234
0.05480844 0.008530863 0.08876767 0.0673567 0.0019468481 -0.021084245 -0.059383076 -0.0705023
-0.03887764 0.012608148 0.0348412 -0.027882611 0.044948343 -0.04191338 0.04200066 -0.048425883
-0.0060558156 -0.011070747 0.009424668 0.037192807 0.014562225 0.028246483 0.09796235 -0.084570944
-0.06339953 0.08492122 0.06165387 0.005512344 0.039473712 0.06858441 -0.09420413 0.03281849
0.05584776 -0.037997257 0.06393155 0.006089763 -0.009365527 0.08012522 0.054482896 0.13704997
0.04016161 -0.05221096 -0.20015676 0.008362741 -0.030812055 0.049814273 -0.09613649 -0.045003094
-0.018802583 -0.16999331 -0.10413201 0.045191348 -0.027616378 -0.053793 -0.06876151 0.16235617
0.013128051 0.03678256 0.08983044 -0.09944835 0.09349837 -0.045119245 0.017665567 0.05242454
0.052606903 0.09470649 0.07396602 0.0063046482 0.05121726 -0.07171778 0.017902397 0.061698485
-0.07211977 0.068502985 0.03431574 -0.044416506 -0.10341963 0.084405966 -0.039409086 -0.0148142

bias f4 [59]
00000000: d768 2e3e 0f09 b03d 34a3 35bd 62a5 8dbe
00000010: 7611 a73d dde9 6a3e 5ad1 823e a35c abbe
00000020: 26d9 a5be ef42 d7bd efd3 d4bd 52e3 d13e
00000030: c318 70be 04f3 d2bd 6b59 96bd 2dbc 83be
00000040: 38f1 36be e0a2 033d 595a abbc 4f15 6e3d
00000050: b931 a1be 7728 d7bc 11aa 593b 44fc 8bbd
00000060: e50c 633c bbc7 923e 1394 2fbe 31c1 3ebe
00000070: dd9f 44be dbdd 1f3e 173b 24be 9984 323e
00000080: e0a1 f6bd 40ac 113d ace2 7abe b7e4 62be
00000090: 300d f43c ab1b 84bd 408f c93d 2e8c a13c
000000a0: ab0c 373c 9f88 62bc e527 03bf b6e1 703c
000000b0: eca7 acbd f538 debd d1b8 9cbe e0c9 af3e
000000c0: ce55 b6bd 1ad9 1c3d d84f 00bf 52f0 063e
000000d0: 52d5 21be e16b 553d 1c48 98be df5b 21be
000000e0: 9deb 0d3e 80e1 6abd 6c9d 82bd
0.1703218 0.08595478 -0.044345096 -0.2766524 0.08157627 0.22940774 0.25550348 -0.33469114
-0.32392234 -0.105108134 -0.103919856 0.40993744 -0.23446946 -0.10300258 -0.07341274 -0.25729504
-0.17865455 0.03213775 -0.020917105 0.05812579 -0.31483248 -0.026264412 0.003321294 -0.06835225
0.013858055 0.28668007 -0.1714633 -0.18628384 -0.19201608 0.15611975 -0.16038166 0.17433394
-0.12042594 0.03556466 -0.24500531 -0.2215756 0.029791445 -0.0645059 0.09841776 0.019720163
0.011172454 -0.013826518 -0.5123275 0.014702251 -0.08430466 -0.108507074 -0.30609754 0.34333706
-0.08903085 0.03829298 -0.5012183 0.13177612 -0.15804031 0.052104834 -0.29742515 -0.15757702
0.1385941 -0.05734396 -0.06377682

weight f4 [59, 187]
00000000: 0fe8 49bd fd6e 98be 7755 b3bd d466 b5bd
00000010: 64d7 013d 09a3 7bbd 47ce 1c3d ec03 6fbe
00000020: bb63 163e 1776 d1bc 9a99 d6bd a645 7ebc
00000030: 9d17 9bbd 6019 51be 6c02 443e fde7 0e3e
00000040: 581f 07bd 2650 4d3e 85c3 e1bc 276c aa3d
00000050: 3de0 a7bd e1d2 8fbd 646d 75be 3462 58bc
00000060: 2139 50be 629c 20be 0930 913d f32d 02be
00000070: 08a8 2ebe be0d 603c fc5c 283d 6e97 7e3c
00000080: a0ea bfbd 4bae 433d f21e 183e dd3f 2fbe
00000090: fa93 bebd c5ce 493e 0add eabc 5b3e 973d
000000a0: b158 993e e73c 9dbe 9644 90bd 1dea 18be
000000b0: b90d 9c3d 8515 5bbe a8c1 aabd e06c a33e
000000c0: 8705 5e3e 44f0 93bd e592 eebd 1ac4 81be
000000d0: ae42 cd3d 41e4 b0bc f573 af3d dd72 093e
000000e0: 0aef 093e 0e26 a2bd 5b6b 70be 5a25 8abb
000000f0: 9eba 5bbd 9dd1 69bc 223f acbd 225c 55bd
00000100: 905a 553d 8af9 0cbe b88e 24bc 9ee3 263e
00000110: 03a5 8f3d 1653 84bc 31de 32bd 4238 733e
00000120: 23e5 d93c b366 783e e58c 8e3d 230d c63d
00000130: bfe3 aebd a89a 93be 1e47 23be d6f7 d8bd
00000140: cb63 fc3d 4a55 ff3d a922 953e d8b7 79be
00000150: dc2c 5fbc 4f78 343e 88f6 95be 2875 b93d
00000160: 3b69 7fbe 5aac 2abe e5bd b2bd 868d 663e
00000170: a4f1 34be 8a74 053e 0a26 92be 7e98 f0bc
00000180: 944e 6e3e 605f 213e 1b64 653e ece2 673e
00000190: 0c0e bbbd 0e58 8a3d dc45 7a3e caa3 053e
000001a0: 715a a73c d991 38bd ff3f 70bd 8a9a 3fbe
000001b0: dec5 13be 2b40 803e d169 71be 53ae 7ebe
000001c0: d6da e7bd dedd ee3c 2ef5 8b3d c552 4c3e
000001d0: 7e8a a23d fdf9 3a3e 2ec3 c63d 7b3f 3cbe
000001e0: bd82 c8bd 294b 413e e64f ceba ab1f 71be
000001f0: b458 f1bc d6ae 1cbe 16e0 95bc e436 2f3e
00000200: 7ade c0bd 9103 23bc bd1e 42be 63d6 00be
00000210: 5261 9e3d c9f5 c2bd cd16 213e 881e ffbd
00000220: b093 27bd a2ff 18bd b5f8 4ebe b002 093e
00000230: 1b2a 93bd efcf 0bbe 6fc1 843d 0520 9c3c
00000240: 9392 2dbe 3eee 31bd 1cc5 59be 1c23 993b
00000250: b266 b43d 18f7 2fbd dd5d 35be e040 7bbe
00000260: 04a3 b1bd 9b67 4f3e 0ff4 a03b dfda 79be
00000270: 4379 14be 59ff aabe ebb2 093e 58f4 d83d
00000280: 60bf d23c 0001 e2bc 06ad f3bd ced2 8d3d
00000290: 2787 ce3d 44c6 a1bd 31ef b73c 07ad fb3c
000002a0: 795b c83d 6604 d6bd b462 15bd 4720 423e
000002b0: 44a4 61bd 834b 59bc 8ba8 583d 2898 ccbc
000002c0: ea03 5a3d 3323 25be c5fa e5bd 65d6 7cbe
000002d0: 8237 82bd e384 893d df1c 453b 7226 b6be
000002e0: 2700 023e 8743 80be 2760 7dbe 1d67 61bc
000002f0: aa7b 693d 02c2 89bd d798 853c 34b0 ee3d
00000300: 3665 b9bc cd78 7e3b 733f bf3d b95d c6bd
00000310: 9705 5dbd d8e0 dd3c 31be 75bd 0e55 c0bb
00000320: d22d 153d 575e edbb 0de8 a13d 9f3d cdbb
00000330: 20bd 9d3d 7229 2cbd 042f 253c 6f56 a4bd
00000340: 029d de3c bdf6 bf3c dd57 6b3d 0980 22bd
00000350: 7ca7 c23d 7212 ee3c 71b0 823d 6e51 a93c
00000360: c0a8 173d 895e 793c 567b 12bd f65d e43c
00000370: 552c 05be bdaf 17be 6f8e ab3c 6732 d0bd
00000380: ee91 d2bd 2a6c 6fbd a09a a53d 6c43 8f3d
00000390: 28a7 873d 4d29 1fbe b3b2 e53d 5a8e 12bd
000003a0: 45be d53d baaf 263c f2a6 15bc 4262 fd3c
000003b0: 065f 12bd 085b 503d 41d8 273e 5030 04bd
000003c0: 5abe 243e f107 0abc 21e8 0ebd 8356 533d
000003d0: c2a7 383d 9bdd 213c 0cfd b53c 6065 053d
000003e0: cf60 b3bc c4e5 90bd 2b75 563c db38 96bd
000003f0: 3b98 c93d 8222 893d bab8 9fbc 858b 793d
-0.049293574 -0.29772177 -0.087565355 -0.088575035 0.031699553 -0.06143478 0.03828266 -0.2334134
0.14686482 -0.025569005 -0.10478516 -0.015519535 -0.07572863 -0.20419836 0.19141549 0.13955684
-0.032988876 0.20050105 -0.027559051 0.0832141 -0.08197067 -0.07022644 -0.2396751 -0.013207007
-0.20334293 -0.15684655 0.0708924 -0.1271284 -0.17056286 0.013675151 0.0411043 0.015539033
-0.09370923 0.04777364 0.14855555 -0.17114206 -0.09305568 0.19707783 -0.028669853 0.0738494
0.2995048 -0.30710527 -0.07044332 -0.14933057 0.07619805 -0.21394928 -0.08337718 0.31919003
0.21681796 -0.072235614 -0.11649112 -0.25344926 0.10022484 -0.021593215 0.08567039 0.13422723
0.13470092 -0.079174146 -0.23478453 -0.0042158784 -0.05364477 -0.014271167 -0.08410479 -0.052089818
0.05208832 -0.13767067 -0.010043792 0.16297767 0.07013895 -0.0161529 -0.04366893 0.2375193
0.026598519 0.24257927 0.06960467 0.096704744 -0.08539533 -0.2882893 -0.15945098 -0.10594146
0.123237215 0.124674395 0.29128006 -0.24386537 -0.013621535 0.17624019 -0.2928965 0.09055549
-0.24942486 -0.1666731 -0.08727626 0.22514924 -0.17670304 0.13032737 -0.28544647 -0.029369589
0.23272163 0.15759039 0.22401468 0.22645158 -0.091335386 0.06755076 0.24440712 0.13050762
0.020428868 -0.045060966 -0.05865478 -0.18711296 -0.14430949 0.25048956 -0.23575522 -0.24871187
-0.113210365 0.029158529 0.06833874 0.19953449 0.079365715 0.18259425 0.09705196 -0.18383591
-0.09790561 0.18876328 -0.0015740364 -0.23547237 -0.029461242 -0.1530107 -0.018295329 0.17110783
-0.09417434 -0.009949581 -0.18957038 -0.12581782 0.07733406 -0.09519536 0.15731354 -0.12456995
-0.04091233 -0.037353165 -0.20212062 0.13379931 -0.07185765 -0.13653539 0.06482207 0.019058237
-0.16950445 -0.043440096 -0.21266598 0.004673375 0.0880865 -0.042960256 -0.17711587 -0.24536467
-0.08673671 0.20254366 0.0049119066 -0.24399899 -0.14499383 -0.3339794 0.13447158 0.1059348
0.02572602 -0.027588367 -0.11898236 0.069249734 0.10084372 -0.07899144 0.022452923 0.030722154
0.09783072 -0.10450058 -0.036471084 0.18957625 -0.055088297 -0.013262632 0.05289511 -0.024974898
0.05322639 -0.16126709 -0.11229471 -0.2469116 -0.063582435 0.06714799 0.0030077023 -0.35576206
0.1269537 -0.2505152 -0.2474371 -0.013757494 0.0570027 -0.06726457 0.016308231 0.11654702
-0.022631269 0.0038829327 0.09338274 -0.09685845 -0.05396041 0.027084753 -0.059995834 -0.0058695143
0.03642065 -0.007243912 0.07905588 -0.0062634493 0.07702088 -0.042031713 0.01008201 -0.080242984
0.027174477 0.023433084 0.05745684 -0.039672885 0.09504601 0.02906153 0.0638131 0.020668712
0.037026167 0.015220293 -0.035762154 0.027876835 -0.13005193 -0.14813133 0.020941941 -0.101658635
-0.1028174 -0.058452763 0.08086133 0.069952816 0.066236794 -0.15543099 0.11215725 -0.03578029
0.10436682 0.010173732 -0.009134041 0.030930642 -0.035735153 0.050868064 0.16391088 -0.032272637
0.16088238 -0.008424745 -0.034889344 0.051596176 0.04508186 0.009879495 0.022215389 0.03256738
-0.021896748 -0.07075074 0.013089458 -0.07335063 0.09843489 0.06696035 -0.019497264 0.06092407

bias f4 [59]
00000000: 51fc 153f 67ff abbd 55ef 17be 74c7 a33d
00000010: edfc b93e 6fda 4cbe 923b b7bc d709 953e
00000020: 39c3 933e a9cb d6bd 2dd8 f5bc 910a 7d3e
00000030: f21d 76bc 4c86 1a3e 442b 813e 0538 4fbe
00000040: c2f9 36be 8a65 c03e e606 983d 4f1a c43d
00000050: 2302 833e fff3 2cbe bd06 c5bd 0776 41be
00000060: b52a f1bd 881c e23c 1088 4dbe 4080 39be
00000070: df9b 89be 0823 89be a581 57be be70 6dbe
00000080: 7ae8 32be 7ddf 60be 3f17 39be b051 6abe
00000090: 5497 41be 06c5 43be 57ba 5dbe 9e7f 46be
000000a0: edb6 2bbe 9701 74be 4b02 99be d6ae 53be
000000b0: 64d8 5dbe df1f 26be 133c 9ebe 9734 77be
000000c0: 9c3b 8abe 9c51 69be d177 5cbe 691e 26be
000000d0: edd7 82be 2f28 81be 88f9 38be 3c08 8abe
000000e0: d5d4 69bd f85e dabd 93fe 9d3c
0.5858813 -0.083983235 -0.14837392 0.07997027 0.3632578 -0.20005201 -0.022367273 0.2910907
0.2885988 -0.10488064 -0.030010307 0.24711062 -0.015021788 0.15090293 0.25228322 -0.20236214
-0.17868713 0.37577468 0.07423191 0.095753305 0.25587568 -0.16889952 -0.09620426 -0.1889268
-0.11775724 0.027601495 -0.20071435 -0.1811533 -0.26876733 -0.2678454 -0.21045549 -0.23187539
-0.17471495 -0.21960254 -0.18075274 -0.22882724 -0.18905383 -0.19118127 -0.21653114 -0.1938462
-0.16769 -0.23828731 -0.29884562 -0.20672163 -0.21664578 -0.16223095 -0.30905208 -0.24141155
-0.26998603 -0.22785038 -0.21530081 -0.16222538 -0.25555363 -0.2522597 -0.18063939 -0.26959407
-0.057087738 -0.10662645 0.01928643
