name_generator/model/model_2.pth (torch, 197768 bytes, 6 tensors)

weight f4 [128, 199]
0	0xbc8dc536	-0.017305952
1	0x3c3d3fc9	0.011550852
2	0x3dfe6f37	0.12423556
3	0xbe5ffbde	-0.21873423
4	0x3d087fab	0.03332488
5	0x3e389eec	0.18029374
6	0x3dc7c5e5	0.09754542
7	0xbd9abfd3	-0.07556119
8	0xbdcaf3e3	-0.09909799
9	0x3e4aae14	0.19792968
10	0xbe48af06	-0.19598016
11	0xbcb918a6	-0.022594761
12	0xbe412edc	-0.18865532
13	0xbdf9eed5	-0.12203757
14	0xbde7839b	-0.113043986
15	0xbd3db46b	-0.046314638
16	0xbe577278	-0.2103976
17	0x3cc4c0fa	0.0240178
18	0x3e396c60	0.18107748
19	0x3e1af21d	0.15131421
20	0xbe8976b1	-0.26848367
21	0x3e2575d1	0.16158225
22	0xbe1e89da	-0.15482274
23	0x3d8f7c76	0.07006161
24	0x3bb975e7	0.005659807
25	0x3e0d8b4f	0.13822673
26	0xbe0395bd	-0.1285009
27	0xbdc2a981	-0.095049866
28	0xbda20c42	-0.07912494
29	0x3d0364fc	0.032078728
30	0x3d1da816	0.038490377
31	0xbd350db5	-0.044202525
32	0xb964c1cc	-0.0002181597
33	0x3da22e0b	0.07918938
34	0xbe147c6e	-0.14500591
35	0xbd926a9c	-0.071492404
36	0xbe1dcf7b	-0.15411179
37	0x3e386e38	0.18010795
38	0xbea41bbc	-0.3205241
39	0x3de8d028	0.11367828
40	0x3d0da920	0.03458512
41	0x3e4ff640	0.2030878
42	0xbdb436e8	-0.08799535
43	0x3e841429	0.2579663
44	0x3dd8d6cd	0.10587845
45	0x3e59e95d	0.21280427
46	0xbdd7efd6	-0.10543792
47	0xbcb132ed	-0.021630729
48	0xbd12ae9c	-0.03581105
49	0x3e4b7a03	0.19870763
50	0x3e2c1a71	0.16806962
51	0x3e908737	0.2822816
52	0x3d52080d	0.05127721
53	0x3e0628f1	0.13101555
54	0xbd674afc	-0.056467995
55	0x3df3fddf	0.119136564
56	0x3e187424	0.14888054
57	0x3dca62c0	0.09882116
58	0xbe44d59d	-0.19222112
59	0xbd7e000e	-0.06201177
60	0x3df03317	0.117284946
61	0x3e02900e	0.12750265
62	0xbdb23244	-0.08700994
63	0x3d076496	0.03305491
64	0xbc905279	-0.017617451
65	0xbc1dcc69	-0.009631255
66	0xbc743c86	-0.014907008
67	0xbba96ecf	-0.00517068
68	0xbdbebec3	-0.09313729
69	0xbdc72ee3	-0.0972574
70	0xbd32914f	-0.04359561
71	0xbc8e3b2d	-0.017362202
72	0xbdff9dbd	-0.12481258
73	0x3d17690e	0.036965422
74	0x3c4d81ef	0.012543186
75	0x3d527cd5	0.05138858
76	0xbd85c03f	-0.06530809
77	0xbcb1f3e7	-0.021722747
78	0xbe09df20	-0.13464022
79	0xbbbfe832	-0.0058565373
80	0xbdd44624	-0.10364941
81	0x3cdf5ce8	0.02726598
82	0x3bd9099c	0.00662346
83	0xbd4f873b	-0.050666075
84	0xbd1c4bda	-0.038158275
85	0x3d572d63	0.05253352
86	0x3c9cc987	0.019139064
87	0xbd9195b2	-0.0710863
88	0xbd5f455d	-0.05450951
89	0x3dee3db4	0.11632863
90	0xbe1a70e5	-0.15082128
91	0x3d55978f	0.05214649
92	0x3d1061a0	0.035249352
93	0xbd0955d5	-0.03352912
94	0x3c52d838	0.012868933
95	0x3d6b5e2b	0.057462852
96	0xbd3f5698	-0.04671344
97	0x3d4f3367	0.05058613
98	0xbd4b3829	-0.049614105
99	0x3e0f68ba	0.14004794
100	0xbbda69da	-0.0066654505
101	0x3cde84d8	0.027162954
102	0x3db68d9b	0.08913728
103	0x3d98551c	0.07438108
104	0x3e05ea1a	0.13077584
105	0x3d87df05	0.066343345
106	0xbc7a341d	-0.015271214
107	0xbc9e05b0	-0.019289821
108	0xbd05a167	-0.03262463
109	0xbd39f0b2	-0.04539556
110	0xbdb9407a	-0.09045501
111	0xbccf6969	-0.025318818
112	0xbcd47597	-0.025934977
113	0xbd544b08	-0.051829368
114	0x3dd5b48e	0.10434829
115	0x3d07cf44	0.03315665
116	0xbd943165	-0.07235984
117	0x3d3440bf	0.04400706
118	0x3d32b0e2	0.04362572
119	0x3d277fbf	0.040893313
120	0xbd70f1ec	-0.058824465
121	0xbdd16f0c	-0.10226259
122	0xbd173a51	-0.03692085
123	0xbaf345f0	-0.0018560272
124	0x3d1fa197	0.038972463
125	0x3babb2d9	0.005239826
126	0xbd8a438e	-0.06751166
127	0xbda06f5f	-0.07833742
128	0xbdd631b3	-0.10458698
129	0x3da86c36	0.082237646
130	0xbdbfa9dc	-0.0935857
131	0x3dae0887	0.0849772
132	0xbce98bf4	-0.028509118
133	0xbd10fc64	-0.03539695
134	0xba87e414	-0.0010367655
135	0xbd46bc94	-0.048519686
136	0x3d00363c	0.031301722
137	0x3c5716c4	0.013127986
138	0xbd7d0a65	-0.06177749
139	0x3d12d58e	0.035848193
140	0x3d2fddba	0.042936064
141	0x3d667662	0.056265242
142	0xbd5581b4	-0.052125648
143	0x3dc65566	0.09684257
144	0x3dc77557	0.09739178
145	0xbce9c588	-0.028536573
146	0x3d3a8ad1	0.045542542
147	0xbafcd750	-0.0019290242
148	0x3cacee10	0.02110961
149	0xbc2e9571	-0.010655747
150	0x3d92612d	0.07147441
151	0xbe05e5e3	-0.13075976
152	0xbd7e3242	-0.06205965
153	0xbb0d70e1	-0.0021582174
154	0x3d2011ce	0.03907948
155	0xbd48149b	-0.048847776
156	0x3d93c1ba	0.07214685
157	0x3dcf5db3	0.101252936
158	0xbd811fb4	-0.06304875
159	0x3d0e2535	0.034703452
160	0x3d72b568	0.059255034
161	0x3c8065fb	0.015673628
162	0xbd90ce9c	-0.070706576
163	0xbbb2bb45	-0.005454453
164	0xbd668c3f	-0.056286093
165	0xbd1681a4	-0.03674473
166	0x3d37d26d	0.044878412
167	0xbb6c33cf	-0.0036041623
168	0x3ca74ecb	0.020423314
169	0xbbd00ce1	-0.0063491915
170	0xbd93c4e1	-0.07215286
171	0xbcf678ce	-0.030086901
172	0xbe088de6	-0.1333538
173	0xbe32cde9	-0.17461361
174	0x3db8866b	0.09010013
175	0xbd5f5e4a	-0.05453328
176	0x3cd2fe55	0.02575604
177	0xbcad3916	-0.021145385
178	0xbcf22ace	-0.029561426
179	0xbadc0c26	-0.0016788288
180	0x3dad166a	0.08451541
181	0x3cd90d93	0.02649573
182	0x3d328602	0.04358483
183	0xbd375d82	-0.04476691
184	0x3dabfa9b	0.083974086
185	0xbc5fed3f	-0.013667404
186	0x3db79a38	0.08964962
187	0xbca46d0a	-0.020071525
188	0xbb7dd310	-0.003873054
189	0xbcd56a29	-0.026051598
190	0xbd2e267e	-0.042517178
191	0x3c2249f4	0.009905327
192	0xbd527e97	-0.051390257
193	0xbc8282c2	-0.01593149
194	0x3a85d5d2	0.0010210818
195	0xb96c07a3	-0.00022509559
196	0xbcf6778a	-0.030086298
197	0x3d020380	0.03174162
198	0xbcab5977	-0.020916684
199	0x3d748381	0.059695724
200	0x3d1ae1f9	0.03781316
201	0xbd1a13e8	-0.03761664
202	0x3df3ce02	0.11904527
203	0xbe057f9c	-0.1303696
204	0x3da00c72	0.07814874
205	0x3d39db1c	0.045374975
206	0x3cf0ffd5	0.029418865
207	0xbe5fc581	-0.21852686
208	0x3e200f10	0.15630746
209	0xbc191613	-0.009343642
210	0xbdbc20e1	-0.09185959
211	0xbcafec58	-0.021475002
212	0x3e0d4027	0.13794003
213	0x3d7f18eb	0.062279623
214	0x3e43df9a	0.19128266
215	0xbc2b13b2	-0.010441707
216	0xbcf22493	-0.029558456
217	0x3d5d1501	0.05397511
218	0x3c9afebc	0.018920295
219	0xbe4b5288	-0.19855702
220	0x3e14c7b4	0.14529306
221	0x3c6bd264	0.014393423
222	0xbd765769	-0.060141955
223	0x3df77a6f	0.12083899
224	0x3ca558bb	0.020183912
225	0xbe2f88d0	-0.17142034
226	0x3dcc1faa	0.09966977
227	0xbd375295	-0.04475649
228	0xbe322007	-0.1739503
229	0x3e63f6ee	0.22262165
230	0x3e4b4caa	0.19853464
231	0xbe40196d	-0.18759699
232	0x3dfeaaeb	0.12434944
233	0x3df57c82	0.119866386
234	0x3ca5a838	0.020221815
235	0xbebce2ce	-0.36891788
236	0xbd5a86dc	-0.05335127
237	0xbda5b3b9	-0.0809092
238	0x3e2aca66	0.16678771
239	0x3dad811c	0.08471891
240	0x3dbdcc8b	0.09267529
241	0xbe52f897	-0.20602642
242	0x3dd5593d	0.104174115
243	0xbdb0e273	-0.08636942
244	0xbd227420	-0.039661527
245	0xbd8d7a2a	-0.069080666
246	0xbdf0dbcb	-0.11760672
247	0x3c89d983	0.01682735
248	0xbae47400	-0.001742959
249	0x3dd2c855	0.102921166
250	0x3e48b076	0.19598565
251	0xbde13af2	-0.10997571
252	0x3d3c439d	0.04596292
253	0xbd3559cf	-0.0442751
254	0x3dfe6230	0.124210715
255	0x3cdc30af	0.026878683

bias f4 [128]
0	0x3d64193c	0.055688128
1	0xbd09c121	-0.033631448
2	0x3d283919	0.041070078
3	0xbcb66908	-0.02226688
4	0x3d812efd	0.063077904
5	0xbdfabfe5	-0.12243632
6	0x3d1ad360	0.03779924
7	0x3c2a0f26	0.010379588
8	0xbd94161c	-0.072307795
9	0xbda115f0	-0.07865512
10	0xbd038b65	-0.03211536
11	0xbe0d28c1	-0.13785078
12	0xbd8402a7	-0.064458184
13	0x3d54e4f1	0.051976148
14	0x3c555b86	0.013022309
15	0x3d405e7c	0.046965107
16	0xbcebab9e	-0.028768357
17	0xbd75e974	-0.06003709
18	0xbd9b73c5	-0.07590441
19	0x3d2c542b	0.042072456
20	0xbdab63cc	-0.08368644
21	0xbda004dd	-0.078134276
22	0xbd574aaf	-0.05256146
23	0xbd01c016	-0.031677328
24	0xbcabb96a	-0.020962436
25	0x3d1b218d	0.037873793
26	0x3ce375f8	0.027766213
27	0xbd16fb49	-0.036860738
28	0x3d637b04	0.05553724
29	0x3d891cb6	0.06694929
30	0xbd1f1153	-0.03883488
31	0x3cdf13ef	0.027231185
32	0x3d8054b3	0.06266155
33	0xbdcc2bef	-0.09969317
34	0xbd3d6d8c	-0.04624705
35	0x3d11027f	0.03540277
36	0xbc7d16e8	-0.015447356
37	0xbc4f028d	-0.0126348855
38	0xbc054034	-0.008132983
39	0x3d207bf5	0.039180715
40	0xb9c26c8b	-0.00037083434
41	0x3c161e54	0.009162504
42	0x3cb20234	0.021729566
43	0x3b874746	0.0041283695
44	0x3c97df9a	0.018539239
45	0x3d091a24	0.033472195
46	0xbcbe914f	-0.023262648
47	0x3d866c0d	0.06563578
48	0xbd6bec59	-0.057598446
49	0xbd14d66f	-0.036337312
50	0x3d9057b8	0.07047981
51	0x3be53c71	0.0069957306
52	0xbd83af1a	-0.06429882
53	0xbd7cabfd	-0.06168746
54	0x3d964533	0.073374175
55	0xbcc429b9	-0.023945676
56	0xbcf5380d	-0.029933954
57	0x3b4252e2	0.0029651453
58	0x3d5d8a55	0.054087
59	0xbbfc9618	-0.0077083223
60	0x3d791884	0.060814396
61	0x3c55b60c	0.013043892
62	0x3db8a0a9	0.090150185
63	0xba50f43e	-0.0007970965
64	0x3c8b0d4e	0.016974118
65	0x3d9b3516	0.07578485
66	0x3c06dfb3	0.008232045
67	0x3d120c70	0.035656393
68	0x3bac0e7c	0.00525075
69	0xbc9707e5	-0.018436382
70	0x3b9efbe5	0.0048518055
71	0xbd0968e4	-0.033547297
72	0xbd31492e	-0.04328268
73	0xbc957794	-0.018245496
74	0xbbc7f950	-0.0061027184
75	0x3ce3f9c7	0.027829064
76	0xbc6c5772	-0.014425145
77	0xbd921cd1	-0.071344025
78	0x3d1c0aba	0.038096167
79	0xbe01a101	-0.12659074
80	0xbd656476	-0.05600401
81	0x3d16e62e	0.03684061
82	0x3c721c92	0.0147773195
83	0x3cb1e9ea	0.021717984
84	0xbbc07c02	-0.005874158
85	0x3d873978	0.06602758
86	0x3d5cebac	0.05393569
87	0xbcaf4406	-0.02139474
88	0x3ce1a817	0.027545972
89	0x3d763a30	0.060114086
90	0xbc3b0cf7	-0.011416665
91	0x3df5d68d	0.12003813
92	0xbc26be1f	-0.010177164
93	0xbd52bf36	-0.051451884
94	0x3d06c8ef	0.03290647
95	0x3ba032ea	0.004888882
96	0x3d84575f	0.06461977
97	0xbc822c05	-0.01589013
98	0x3d446c8b	0.047955077
99	0x3c949b81	0.018140556
100	0xbd23f451	-0.04002792
101	0x3b1f1040	0.002427116
102	0x3dd5086b	0.10401996
103	0x3c475594	0.0121663995
104	0x3d8696a4	0.06571701
105	0xbd8d9d1b	-0.06914731
106	0xbd13a41b	-0.036045175
107	0xbd70ad14	-0.05875881
108	0x3d9b251d	0.07575438
109	0xbc47d848	-0.012197562
110	0xbdaac6b5	-0.083386816
111	0x3c86ba1e	0.01644617
112	0xbcafdd0d	-0.02146771
113	0x3d8bf9c6	0.0683475
114	0x3c5509d8	0.013002835
115	0xbdd8503b	-0.10562178
116	0x3cfa0bc9	0.030523198
117	0x3d0b04da	0.033940174
118	0xbca7fe0f	-0.020506887
119	0xbc1085c3	-0.008820954
120	0xbe0533b8	-0.1300801
121	0xbda61241	-0.081089504
122	0xbd2e8d22	-0.042615063
123	0x3d1b9dcc	0.037992284
124	0xbd73e14b	-0.059541028
125	0xbcc5ee04	-0.024161346
126	0xbd1d0fea	-0.038345255
127	0xbd9b5d97	-0.0758621

weight f4 [59, 199]
0	0xbcae0db4	-0.021246769
1	0x39ccf157	0.00039089724
2	0x3dbeff91	0.09326089
3	0xbd11e10c	-0.035615012
4	0x3d206287	0.039156463
5	0xbd8b4ab2	-0.068013564
6	0x3e3b8737	0.18313299
7	0xbdaa2ced	-0.0830935
8	0x3e1c531d	0.1526608
9	0xbd9e7cb9	-0.07738633
10	0xbe6ce4c8	-0.23134148
11	0x3d63c366	0.05560627
12	0x3cf44b7e	0.029821154
13	0x3db8664e	0.09003888
14	0xbda508fd	-0.08058355
15	0xbda82c76	-0.08211605
16	0x3d9ca799	0.07649154
17	0xbd80bd5c	-0.062861174
18	0x3dd4f7db	0.10398837
19	0x3da6f29d	0.081517436
20	0x3c110f86	0.008853799
21	0xbd348b5e	-0.044078223
22	0x3da31098	0.079621494
23	0xbdd784af	-0.10523354
24	0xbe2d4fd7	-0.16924988
25	0xbde3a369	-0.111151524
26	0x3d452988	0.04813531
27	0x3dd48934	0.10377732
28	0xbe1a237e	-0.15052602
29	0xbcc98c6f	-0.024603097
30	0xbe6a2246	-0.22864637
31	0x3cd7c683	0.026339775
32	0xbd696ab2	-0.05698652
33	0x3bd1aeb3	0.0063989996
34	0x3d62cbe3	0.055370223
35	0x3c9ea096	0.019363683
36	0x3da8815f	0.082278006
37	0xbe3ee372	-0.18641451
38	0x3ca32fc1	0.019920232
39	0x3d8ddfa7	0.06927424
40	0x3e0204bd	0.1269712
41	0xb9aeef1e	-0.00033366022
42	0xbd7a2dd8	-0.061078876
43	0x3e1991a4	0.14996964
44	0x3d8d4382	0.06897642
45	0x3de6ab1b	0.112631045
46	0x3d379895	0.044823248
47	0x3d95de57	0.073177986
48	0x3ddb60d1	0.10711826
49	0xbc990a83	-0.01868177
50	0x3d2107df	0.039314147
51	0x3cdcd2c7	0.026955975
52	0xbdfec3ac	-0.12439665
53	0x3d92e448	0.071724474
54	0xbd864548	-0.06556183
55	0xbd92361f	-0.07139229
56	0x3d90645c	0.07050392
57	0xbd3c9cfe	-0.046048157
58	0xbca2a2ab	-0.019852957
59	0x3d8cd609	0.068767615
60	0xbd52a65a	-0.051428176
61	0x3cfea6cd	0.031085396
62	0x3d860dda	0.06545611
63	0xbc805e53	-0.015669977
64	0xbcfe9f02	-0.03108168
65	0x3d1f875f	0.03894746
66	0x3cc2fcf3	0.023802256
67	0x3d061547	0.032735135
68	0xbce1bdbd	-0.027556295
69	0x3e23f40c	0.16011065
70	0xbd7b8267	-0.06140366
71	0x3d4dd122	0.050248273
72	0xbd87b677	-0.06626599
73	0xbd6ee217	-0.058321085
74	0x3c4aba7f	0.012373566
75	0xbdb24084	-0.08703712
76	0x3ccac0c9	0.02475013
77	0xbd8dd348	-0.06925064
78	0xbd560007	-0.05224612
79	0xbd624330	-0.055239856
80	0x3d047262	0.032335646
81	0xbc5380fa	-0.012909168
82	0x3de6fb43	0.11278393
83	0xbcd5b408	-0.026086822
84	0x3cefd80b	0.029277822
85	0xbdeb40f1	-0.11486996
86	0xbc629a9a	-0.013830805
87	0xbd08e6e1	-0.03342331
88	0x3b07ee6a	0.002074147
89	0x3b95d63e	0.004572659
90	0xbd629723	-0.055319916
91	0x3d418324	0.047244206
92	0xbcfc76c6	-0.030818354
93	0x3d9f0ba3	0.077658914
94	0xbd2b1baa	-0.04177443
95	0x3d53753b	0.05162547
96	0xbd0e4f3c	-0.034743533
97	0xbb772b6d	-0.0037715093
98	0xbdcd62fa	-0.10028644
99	0xbd706403	-0.05868913
100	0x3c2377d3	0.009977299
101	0x3d3c5ab6	0.045984946
102	0x3d98e168	0.07464868
103	0x3c6701c9	0.014099547
104	0x3d124812	0.035713263
105	0xbd98e822	-0.07466151
106	0xbc8a518f	-0.016884593
107	0xbcadae12	-0.021201167
108	0x3b905e84	0.0044057984
109	0xbd6caee4	-0.057783976
110	0xbd32eeee	-0.043684892
111	0xbd11e455	-0.035618145
112	0x391e4615	0.00015094162
113	0xbcfc0855	-0.030765692
114	0x3dbe6ce2	0.092981115
115	0x3d7f7afc	0.062373146
116	0xbd989246	-0.074497744
117	0xbd535495	-0.051594336
118	0x3ca4eea4	0.020133324
119	0x3d772571	0.06033844
120	0xbd31c205	-0.043397922
121	0xbdca3e0a	-0.09875114
122	0xbc2611ca	-0.010136077
123	0x3cf30144	0.02966369
124	0xbd9f238b	-0.07770451
125	0xbcf4c90b	-0.029881021
126	0xbcf7c5de	-0.030245718
127	0x3deece06	0.116603896
128	0x3d27ad82	0.040936954
129	0xbc882584	-0.016619451
130	0xbd5110b8	-0.051041335
131	0xbd9038c8	-0.0704208
132	0x3c702dd3	0.014659363
133	0x3db45cd3	0.08806767
134	0xbd612c7b	-0.05497406
135	0xbd629966	-0.055322073
136	0x3d6a6bc1	0.05723167
137	0x3a590ec0	0.0008280091
138	0xbdc32021	-0.095276125
139	0xbceee1f9	-0.029160487
140	0x3cf31a4d	0.029675627
141	0xbd380c4b	-0.0449336
142	0xbda5392e	-0.08067547
143	0x3dccee42	0.100063816
144	0xbdb10547	-0.08643585
145	0xbd05b68f	-0.032644805
146	0x3da4fae2	0.080556646
147	0xbda351ba	-0.079745725
148	0x3d4d3703	0.05010129
149	0xbd04a0c6	-0.032379888
150	0x3bc9c6a9	0.0061577153
151	0xbd8f0868	-0.06984025
152	0xbc80942f	-0.01569566
153	0xbd4be5ab	-0.049779575
154	0x3df3277d	0.11872766
155	0x3c9906a0	0.018679917
156	0xbc4e40bd	-0.012588677
157	0xbdce5346	-0.10074477
158	0x3d296667	0.041357424
159	0xbd8b7642	-0.06809665
160	0xbd6cdb12	-0.05782611
161	0x3cb4b3e8	0.022058442
162	0x3c758d01	0.014987231
163	0xbc73209e	-0.0148393195
164	0xbdba79c2	-0.09105255
165	0x3d8bf85f	0.068344824
166	0xbcfd8e56	-0.03095166
167	0x3d2eedcc	0.04270725
168	0x3de832ab	0.11337789
169	0xbe0a1caf	-0.13487504
170	0xbda1921a	-0.07889195
171	0xbcadd00e	-0.021217372
172	0x3db62e08	0.088954985
173	0x3ced62e5	0.02897782
174	0xbe03dda6	-0.12877521
175	0x3df7a0a7	0.12091189
176	0x3c35bcd6	0.011092385
177	0xbd812921	-0.06306673
178	0x3d20b3fa	0.03923414
179	0xbd8ce086	-0.06878762
180	0xbc2ccdb5	-0.010547091
181	0x3b269f0e	0.0025424394
182	0x3c51c31a	0.0128028635
183	0xbd910082	-0.07080175
184	0x3d107871	0.035271112
185	0x3d09bafa	0.03362558
186	0x3cc33978	0.023831114
187	0x3d32a244	0.04361178
188	0xbd84f036	-0.06491129
189	0x3d9aceee	0.07559
190	0xbcdc9d15	-0.026930371
191	0xbce3ee57	-0.02782361
192	0x3d0fcb80	0.035106182
193	0x3dddb2b2	0.10825099
194	0x3c1ab5db	0.009442772
195	0xbbb7278c	-0.005589431
196	0x3b9e3820	0.004828468
197	0x3de7ce7c	0.11318681
198	0xbdb3ee1a	-0.08785649
199	0x3e2aeeaa	0.16692606
200	0x3ebf1da9	0.37327316
201	0x3e2c4ff3	0.16827373
202	0xbd0938d4	-0.03350146
203	0x3d99c729	0.0750869
204	0x3cac5251	0.021035345
205	0x3e5f56f9	0.21810521
206	0x3d9ea556	0.07746379
207	0xbe3edbcf	-0.18638538
208	0x3e2c3d5f	0.16820286
209	0xbdb97acb	-0.09056624
210	0x3dfd51c1	0.12369109
211	0x3b93418b	0.0044938973
212	0xbc4a1217	-0.0123334145
213	0x3dfe13d9	0.124061294
214	0xbd72aabf	-0.059244867
215	0xbd84daa3	-0.06487014
216	0xbc528f5d	-0.012851563
217	0x3bf75a12	0.007548579
218	0xbd88d44c	-0.066811174
219	0xbbbcfc91	-0.005767413
220	0x3cc75fd9	0.024337696
221	0x3d7a598d	0.06112056
222	0x3b866f63	0.004102634
223	0xbe3802be	-0.17969796
224	0xbdf3efb3	-0.119109534
225	0xbd3acaf5	-0.04560371
226	0x3d97858c	0.07398519
227	0xbc7d87d9	-0.015474283
228	0x3d7ba528	0.061436802
229	0x3e294fdb	0.16534369
230	0x3decaf60	0.115568876
231	0xbd0a1120	-0.033707738
232	0xbd6eadfc	-0.058271393
233	0x3ca01b6a	0.019544322
234	0x3d93b333	0.07211914
235	0x3da5e393	0.08100047
236	0xbd20c0da	-0.039246418
237	0x3cde324b	0.02712359
238	0x3d23033f	0.039798018
239	0x3dc1570b	0.0944043
240	0x3ca99a8f	0.020703582
241	0x3dbf591d	0.09343169
242	0x3d7dc05e	0.061951034
243	0x3de6a48a	0.11261852
244	0x3d5aac0c	0.053386733
245	0xbca74c87	-0.020422233
246	0xbd9dbb36	-0.07701723
247	0x3e2cec6a	0.1688706
248	0x3dfa1afd	0.12212179
249	0xbc8a67ef	-0.016895263
250	0x3ce47dfe	0.027892109
251	0xbd1b1fba	-0.037872054
252	0x3d948e1e	0.07253669
253	0x3c8b906c	0.01703664
254	0x3c8e954a	0.017405171
255	0x3e5164cb	0.20448606

bias f4 [59]
0	0x3dcf9fa4	0.10137871
1	0x3f08e42b	0.53473157
2	0xbe355bc6	-0.1771079
3	0x3da07f01	0.07836724
4	0xbcd48ef4	-0.025947072
5	0xbeaae581	-0.33378223
6	0x3ede1fe7	0.43383715
7	0x3c32a120	0.010902673
8	0xbf37d8d1	-0.7181521
9	0xbd3643c5	-0.044498224
10	0xbeb837c6	-0.35980052
11	0x3e82b4d1	0.25528577
12	0xbd2076f6	-0.03917595
13	0x3f00b243	0.50272006
14	0x3e1c792f	0.15280603
15	0xbe071090	-0.13189912
16	0x3db9e9ec	0.0907782
17	0x3ed39d3d	0.413309
18	0x3e517dea	0.20458189
19	0xbdf18f28	-0.11794883
20	0x3df39ee0	0.118955374
21	0xbbcc8c32	-0.0062422985
22	0x3ec4f0e1	0.38465026
23	0x3c08a1fb	0.0083394
24	0xbe5bcd8b	-0.21465127
25	0x3e88e664	0.26738274
26	0xbe3c3687	-0.18380176
27	0x3eb9398f	0.36176726
28	0xbe83c812	-0.2573858
29	0x3e8397f8	0.2570188
30	0xbdcea174	-0.100893885
31	0x3e05c479	0.1306323
32	0xbe3e705b	-0.18597548
33	0xbe399075	-0.18121512
34	0xbc5dfd57	-0.01354917
35	0x3e9706ad	0.2949728
36	0x3d750619	0.05982027
37	0x3e0301ef	0.12793706
38	0x3d3523c0	0.044223547
39	0x3e0cdb6b	0.13755576
40	0xbe8f6ad8	-0.28011203
41	0x3d9b19be	0.07573269
42	0x3eeb662e	0.45976394
43	0xbeb953ff	-0.36196896
44	0x3c0b2772	0.008493291
45	0xbce35f6f	-0.027755467
46	0x3e386c1e	0.18009993
47	0x3d09e231	0.03366298
48	0xbe6abad0	-0.22922826
49	0x3e8cfae5	0.27535167
50	0x3c920768	0.017825797
51	0x3f46bfc0	0.7763634
52	0x3d65c990	0.056100428
53	0x3d84acaf	0.06478249
54	0x3edb67ea	0.42852718
55	0xbe578427	-0.21046506
56	0xbbcf1675	-0.0063198158
57	0x3ecfa850	0.405581
58	0xbeb63afd	-0.3559188

weight f4 [59, 187]
0	0x3dcc1dc3	0.09966614
1	0xbe04ea72	-0.12980059
2	0x3d2070a8	0.039169937
3	0x3e473069	0.19452061
4	0x3db5767b	0.08860489
5	0xbe3a56e1	-0.18197204
6	0x3d24e983	0.040261757
7	0xbd71c7dd	-0.059028495
8	0xbe0aadc2	-0.13542846
9	0xbd917ec0	-0.07104254
10	0xbd47f8e4	-0.048821345
11	0xbe86a4fd	-0.2629775
12	0xbe1c6210	-0.15271783
13	0x3e167d88	0.14696324
14	0x3dce7865	0.10081557
15	0x3e4b8ca7	0.19877873
16	0xbc439a9d	-0.011938718
17	0x3d1bd117	0.0380412
18	0x3e2dd3be	0.16975304
19	0x3d5e7ce0	0.05431831
20	0xbe1c7624	-0.15279442
21	0xbe49d0bb	-0.1970853
22	0x3d3940fd	0.045227993
23	0xbe158953	-0.14603166
24	0x3c4e19a5	0.012579356
25	0x3d063066	0.032761
26	0xbcb432a9	-0.021996813
27	0xbe5e96cc	-0.21737212
28	0xbddade38	-0.10686916
29	0xbc34167d	-0.01099169
30	0xbd8e8716	-0.06959359
31	0x3df9a73b	0.121901
32	0x3e17f2de	0.1483874
33	0xbb1c85a4	-0.0023883367
34	0xbdab637c	-0.083685845
35	0xbe5a9e4c	-0.21349448
36	0xbdfe48bd	-0.124162175
37	0xbd2bedb2	-0.04197473
38	0xbd705f4e	-0.05868464
39	0xbc77bf04	-0.015121225
40	0x3d4178ff	0.04723453
41	0x3e0cd9b8	0.13754928
42	0xbd8007a3	-0.062514566
43	0x3e718b22	0.23588231
44	0x3d1eaf8b	0.03874163
45	0x3d21d022	0.03950513
46	0xbe8b1ad5	-0.2716891
47	0xbc89165d	-0.016734296
48	0xbd47a81f	-0.048744317
49	0xbd68a59e	-0.05679857
50	0x3e34bf8d	0.17651196
51	0x3da56783	0.08076384
52	0x3db252b1	0.087071784
53	0x3df1a26a	0.11798556
54	0x3dbe4a02	0.092914596
55	0xbdbd6bfc	-0.09249112
56	0xbd33eccf	-0.04392701
57	0xbdc128fc	-0.09431645
58	0xbd798aea	-0.060923494
59	0x3dc96864	0.09834364
60	0x3d034392	0.032046862
61	0xbe1ed835	-0.15512164
62	0x3d804c73	0.062645815
63	0x3c8e49bc	0.017369144
64	0x3d4529f2	0.048135705
65	0x3d172447	0.03689983
66	0xbba92b24	-0.0051626135
67	0x3cb18858	0.02167146
68	0xbdd18be4	-0.1023176
69	0x3dbd14d4	0.09232488
70	0x3e2227b3	0.15835457
71	0xbe3968aa	-0.18106332
72	0xbd6194b1	-0.055073444
73	0xbbfc156f	-0.007692985
74	0xbd8ab8cd	-0.06773529
75	0xbe831305	-0.25600448
76	0xbd847907	-0.06468397
77	0xbe446364	-0.1917854
78	0x3df675b0	0.12034166
79	0xbdb02997	-0.08601683
80	0xbd6f7bcc	-0.05846767
81	0xbd2dd87a	-0.042442776
82	0xbd00485b	-0.031319004
83	0xbde815d9	-0.11332292
84	0x3c0c3768	0.008558132
85	0x3cb65848	0.022258893
86	0x3e701317	0.23444782
87	0xbe60a14c	-0.2193653
88	0xbe0403b0	-0.12892032
89	0x3e2988de	0.16556117
90	0x3d8ff1f5	0.070285715
91	0xbdb03135	-0.086031355
92	0x3cf0578c	0.02933862
93	0xbd8c6416	-0.068550274
94	0xbc8235ae	-0.015894737
95	0x3d5d7e08	0.05407527
96	0xbbac49f9	-0.0052578417
97	0xbd9c7aa4	-0.07640579
98	0x3c9edaf1	0.019391509
99	0xbd74988f	-0.059715804
100	0xbdb71866	-0.089402005
101	0xbd7e36cc	-0.062063977
102	0x3d5dae93	0.054121565
103	0x3e13a117	0.1441692
104	0x3dab485a	0.08363409
105	0xbe2f21fb	-0.17102806
106	0x3d00d151	0.03144962
107	0xbcd124ce	-0.025530245
108	0x3deae0a3	0.11468627
109	0x3d1c7d22	0.038205273
110	0xbdf98ae5	-0.12184695
111	0x3e198732	0.14992979
112	0xbe83d6d4	-0.25749838
113	0xbcdfa76a	-0.027301509
114	0xbc8ee9f3	-0.01744554
115	0xb9633236	-0.00021667112
116	0xbcabf34a	-0.020990033
117	0x3d818816	0.063247845
118	0x3e1342d2	0.14380959
119	0x3ca8e6c6	0.020617854
120	0xbdfb07a4	-0.12257317
121	0xbdb6206e	-0.08892904
122	0xbd01c356	-0.031680427
123	0x3e460d26	0.19340953
124	0xbe0613ee	-0.1309354
125	0x3d1c1bcc	0.038112447
126	0xbe17cca0	-0.14824152
127	0xbcbfdbf4	-0.023420312
128	0x3d625bcd	0.05526333
129	0x3d7bc544	0.061467424
130	0x3e5edb73	0.217634
131	0xbc595158	-0.013264023
132	0xbe83c9d7	-0.2573993
133	0xbe9375f3	-0.28800926
134	0x3df1ade8	0.11800748
135	0xbdb4ab17	-0.08821695
136	0xbdbdce46	-0.09267859
137	0xbbcd5060	-0.006265685
138	0x3d368231	0.044557754
139	0x3e532c42	0.20622352
140	0xbe93651b	-0.28788075
141	0x3dd3c789	0.10340793
142	0x3e93dd7f	0.28879926
143	0xbe221a47	-0.15830337
144	0xbc9b80a6	-0.018982243
145	0x3e3b9f04	0.18322378
146	0xbd4251fe	-0.047441475
147	0xbe62c668	-0.22145998
148	0x3cca0b62	0.02466363
149	0x3deeb8e7	0.11656361
150	0x3d87cd88	0.06630999
151	0x3e11335c	0.14179748
152	0xbd88aa76	-0.06673138
153	0xbaa8861d	-0.0012857352
154	0x3d8ef9d2	0.06981243
155	0xbe6404df	-0.22267483
156	0xbe1941a1	-0.14966442
157	0xbdddc9bc	-0.108294934
158	0xbdfb2e16	-0.122646496
159	0x3eb7bf3d	0.3588809
160	0xbd454877	-0.04816481
161	0x3de8d03e	0.11367844
162	0x3e3ed002	0.18634036
163	0x3e0bd3e6	0.13655052
164	0x3ea72d5a	0.32651788
165	0x3e1e90a3	0.15484862
166	0xbdc395eb	-0.09550079
167	0xbe6c2b2e	-0.23063347
168	0xbd70a727	-0.05875316
169	0x3e148441	0.14503576
170	0x3e220efb	0.15826027
171	0x3e04cf95	0.12969811
172	0xbd0e578f	-0.03475147
173	0xbe0cf28d	-0.13764401
174	0x3dc724ce	0.09723817
175	0xbe3d0b1d	-0.1846127
176	0xbdcff2b0	-0.10153711
177	0x3cb6a345	0.02229465
178	0xbdbffb6e	-0.09374128
179	0x3d573087	0.052536514
180	0xbe339a54	-0.1753934
181	0x3d88e773	0.066847704
182	0xbc3586bd	-0.011079487
183	0x3d61311c	0.054978475
184	0xbe3091a8	-0.17243063
185	0x3caa965b	0.020823648
186	0xbd3f9fdd	-0.046783317
187	0xbdc5f1e3	-0.09665277
188	0xbe3663d2	-0.17811516
189	0xbe2adbe5	-0.16685446
190	0x3e4d902d	0.2007453
191	0xbd2aaf95	-0.041671354
192	0xbc99e848	-0.018787518
193	0x3d08ee85	0.033430595
194	0xbe71dda8	-0.23619711
195	0xbcd304dd	-0.025759155
196	0xbda769aa	-0.08174451
197	0xbd7592ff	-0.05995464
198	0x3e7fb2bf	0.2497053
199	0x3d1d9031	0.03846759
200	0xbe226fb4	-0.15862924
201	0xbd6c35e2	-0.057668574
202	0xbe251ddd	-0.16124673
203	0x3d01b93f	0.031670805
204	0xbd08533f	-0.033282515
205	0x3cebe77d	0.028796906
206	0x3d3cada3	0.04606403
207	0x3eaa969e	0.33318037
208	0x3e56b8ec	0.2096898
209	0xbcbb0c8d	-0.022833133
210	0x3d21be66	0.03948822
211	0x3dcd5fb0	0.100280166
212	0xbd0bd716	-0.03414067
213	0xbe651477	-0.22371088
214	0xbd5bdc48	-0.053676873
215	0x3e68aac6	0.22721395
216	0xbe3b3d28	-0.18285048
217	0x3e51c703	0.20486073
218	0x3df208af	0.118180625
219	0xbd9cea6a	-0.076618984
220	0x3e3d4683	0.1848393
221	0xbd23601f	-0.03988659
222	0xbe63aad8	-0.2223314
223	0xbdeac907	-0.11464124
224	0x3dc69ca0	0.096978426
225	0xbe4c0948	-0.19925416
226	0xbcf07957	-0.029354734
227	0x3dc6510c	0.09683427
228	0x3e15700e	0.14593527
229	0xbdcdac52	-0.10042633
230	0xbebcce39	-0.36876085
231	0xbdef6d47	-0.11690765
232	0xbda5b8a9	-0.08091862
233	0xbde83338	-0.11337894
234	0x3e2807f7	0.16409288
235	0x3da9dd90	0.08294213
236	0xbe1cb1bb	-0.15302174
237	0xbdbc4ecc	-0.09194717
238	0xbc30756c	-0.010770183
239	0xbdf7b939	-0.12095875
240	0x3c6f9380	0.014622569
241	0x3e04ad46	0.12956724
242	0x3d936841	0.07197619
243	0x3c768403	0.0150461225
244	0x3d96ed7e	0.07369517
245	0xbdeebafd	-0.11656759
246	0x3da5e201	0.080997474
247	0xbe499a3f	-0.19687746
248	0x3d9ab013	0.07553115
249	0x3d312f5c	0.043258056
250	0xbcec1598	-0.02881889
251	0xbd50b2af	-0.050951656
252	0xbca0417c	-0.019562475
253	0xbe45fd2a	-0.19334856
254	0x3db03de6	0.08605556
255	0xbcae3bd8	-0.02126877

bias f4 [59]
0	0x3f289028	0.65844965
1	0xbe4bba2c	-0.19895238
2	0xbeac03a1	-0.3359652
3	0x3d5c33da	0.053760387
4	0x3e0ab99b	0.13547365
5	0xbec908f8	-0.39264655
6	0xbe0d0422	-0.13771108
7	0x3ce61e27	0.02809055
8	0x3e8fbc73	0.28073463
9	0xbbe57907	-0.007002953
10	0xbbbda566	-0.0057875393
11	0x3e7f9978	0.24960887
12	0xbd0b09f6	-0.033945046
13	0x3c9ed8b0	0.019390434
14	0x3e312cc5	0.17302234
15	0xbea1c432	-0.31594998
16	0xbed81b03	-0.42208108
17	0x3e67abd8	0.22624147
18	0x3d256f4d	0.040389348
19	0xbe1c9a95	-0.15293343
20	0x3e82c72e	0.25542587
21	0xbe42c54a	-0.19020572
22	0xbebf928f	-0.37416503
23	0xbec4e660	-0.38457012
24	0xbe2ea442	-0.17054847
25	0xbe4a04d3	-0.19728403
26	0xbf1181a9	-0.5683847
27	0xbed17c1f	-0.4091501
28	0xbede880b	-0.43463168
29	0xbedb571b	-0.42839894
30	0xbeea2d8e	-0.4573788
31	0xbf1115d3	-0.56673926
32	0xbee12cc7	-0.43979475
33	0xbef6622d	-0.48121777
34	0xbf03ff47	-0.515614
35	0xbea9a263	-0.33131704
36	0xbecc49ad	-0.3989996
37	0xbed9c019	-0.4252937
38	0xbeb25a7c	-0.3483466
39	0xbecd07f0	-0.40045118
40	0xbefd2a44	-0.4944631
41	0xbef394e0	-0.4757452
42	0xbf01217b	-0.5044171
43	0xbec2d330	-0.38051748
44	0xbeb80a42	-0.35945326
45	0xbef0010f	-0.46875808
46	0xbeffe04b	-0.4997581
47	0xbf064be5	-0.52459556
48	0xbec66b3b	-0.38753685
49	0xbef4986b	-0.47772536
50	0xbef1cc9e	-0.47226423
51	0xbec1a2f2	-0.3781963
52	0xbf0ef45c	-0.5584161
53	0xbf0d4fce	-0.551999
54	0xbf0dfbe1	-0.5546246
55	0xbf043966	-0.51650083
56	0xbeb61646	-0.35563868
57	0xbf0904b2	-0.5352279
58	0xbb6b0912	-0.003586356
